app/src/main/ml/model_1.tflite (tflite, 15396 bytes, 10 tensors)

arith.constant f4 [4, 16]
00000000: 5131 463e ba23 023f 512d 68be bb52 173e
00000010: f94e 46be 90f8 e7bb 44c1 3b3f 7822 163e
00000020: 9d90 253e 42d8 74bf 3ebe fb3d 47f3 223f
00000030: 4652 3b3e bfa8 083f 7aa4 1bbe 4563 06be
00000040: bdc1 b53e 28ec 753d 7574 91be 333a 253f
00000050: ed06 2bbe 136f a0bd d350 1f3f 9d42 0dbf
00000060: be41 6abd d419 52c0 a1e6 8bbe 5864 8e3f
00000070: 0a11 573c 7690 15bf 0727 5a3f f550 00c0
00000080: 774c 853e 3e04 653e 90da ee3d dbbf 25c0
00000090: 9ffc 63be ac6b 3f3f 1048 63bf f81e 13bf
000000a0: e40a c9bf 83cf c33f d447 b8be 3507 2ec0
000000b0: 5195 1fbe adcd 82bf e2d3 cfbf 8fd3 9f3f
000000c0: 0dca ffbe a265 4d3e 78a4 15bd c9a4 94bf
000000d0: e7a3 8c3e fd8f 043f 9aa8 103d 39d3 a3be
000000e0: 289d 39bf 1854 6f3f d83f 1fbf b7ed 0ebf
000000f0: 87ae 9b3e 9a79 313d 6fd4 76be 6df4 ffbd
0.1935475 0.50835764 -0.22673537 0.14777653 -0.19366063 -0.0070791915 0.73341775 0.14661586
0.16168447 -0.95642483 0.12292145 0.6365246 0.18293104 0.53382486 -0.15199462 -0.13123806
0.35499373 0.06003967 -0.28409162 0.6454193 -0.1670186 -0.07833686 0.622327 -0.5517977
-0.057191603 -3.2828264 -0.27324393 1.1124372 0.013126621 -0.58423555 0.852158 -2.0049412
0.260349 0.223649 0.11662781 -2.589835 -0.22264336 0.7477367 -0.88781834 -0.5746913
-1.5706449 1.5297703 -0.359923 -2.71919 -0.15584303 -1.0219017 -1.6236537 1.2486438
-0.4995884 0.20058301 -0.036533803 -1.1612788 0.27468798 0.5178221 0.03531704 -0.31997088
-0.72505426 0.9348769 -0.6220679 -0.55831474 0.3040659 0.04332886 -0.24104474 -0.124977924

arith.constant1 f4 [4, 16]
00000000: fb19 84be 36bf e9be 2986 7dc0 4562 af3e
00000010: b384 84be 793a 3a3f 8ae9 9a3e 2cd1 873e
00000020: 9bb6 9c3e b4f2 3ebd 7fdd 083e a972 cabe
00000030: e74e 7a3e 3bd3 dabe f143 ffbd 002b cc3e
00000040: ecba 063f c88f 6ebe 7b66 1b40 7d47 5ebf
00000050: 5f74 aebe 85a7 b7bf 4d2e 32bf 085c a5bf
00000060: d7d4 303e db56 2bbd be29 533f f2e3 a2be
00000070: 24f8 a93e a648 783f e645 353f 7afb d73d
00000080: c992 90be 8733 053e f5c9 56bf b1df e8be
00000090: d83e a03e 3cc6 f2bc c46e e73b a849 27be
000000a0: b8f6 9fbe a9c6 72bd e86a 4e3e 44fb 3cbe
000000b0: 51cf 0abc fa92 493f fe05 3d3f c675 303e
000000c0: 7c51 7b3e fe22 903e d48d e3be 67ee 2b3f
000000d0: c3ca 7e3c c344 103f d172 d2be 15e0 c13e
000000e0: ea1e a6be 38b0 2d3d 3fd0 6bc0 027a 463f
000000f0: 3503 c0be 5210 32c0 dd94 babf 55d4 013f
-0.25801072 -0.45653695 -3.9613135 0.3425466 -0.2588249 0.7274547 0.302563 0.26526773
0.30608067 -0.04661818 0.13365744 -0.39540604 0.24444161 -0.4273928 -0.12464131 0.39876556
0.5262897 -0.23297036 2.42813 -0.8682783 -0.3407316 -1.4347998 -0.696019 -1.2918711
0.17268692 -0.04183088 0.8248557 -0.31814533 0.3319713 0.9698585 0.7080978 0.10546012
-0.28236988 0.13007937 -0.8390191 -0.45483163 0.31297946 -0.029635541 0.007062765 -0.16336691
-0.3124292 -0.05927149 0.20157969 -0.18455225 -0.00847228 0.78739893 0.7383727 0.17232427
0.24542803 0.28151697 -0.44444144 0.6716065 0.015551272 0.5635492 -0.41103223 0.37866274
-0.3244546 0.042404383 -3.6845853 0.7752992 -0.37502447 -2.782246 -1.457668 0.5071462

arith.constant2 f4 [16, 32]
00000000: ffc5 6bbe 43f4 573e 49d6 8a3e 30c2 e6bc
00000010: 282d e6bc 9271 03be 23c0 5cbe 743a 01be
00000020: 08d5 b4be d417 ddbd 88da a5bd 6b69 83be
00000030: 2879 973e 05d5 ab3e e36d 6abd c9e3 a53e
00000040: a061 1bbc ff4e aa3e 08ff 883e ec0a 5b3e
00000050: b042 413e 12d4 03bb e6b4 bdbd c40c f5bd
00000060: 4e11 f83d 2da0 7cbe e08f 66be 2630 033e
00000070: dc6f a4be 0ad0 96bd f0f8 8ebe e068 623c
00000080: 31a9 9fbe 208e 8f3c cf44 ddbd 0e18 ab3c
00000090: c69f b6be 9aa8 983e b9cb b1be c8f0 e83d
000000a0: de6a 35be 9b15 dc3c cae8 033e 0e9c 12be
000000b0: 4a96 783e bd7e bdbe 1d26 7fbe 80dd 1e3e
000000c0: adc8 873e 57d5 aabe 0841 b4bd 265c 103d
000000d0: 0677 6b3d 37bb 9b3e 541b 6abe 49fd 83be
000000e0: 91fe babe 576e 8f3d 8d81 563e 2cc0 8f3d
000000f0: a0f1 3a3e 3467 1e3e 26d4 8abe 0abb 37be
00000100: 50e7 fd3e e067 cdbc 4110 48be f914 ad3e
00000110: 2796 033f 2d8d aebe a3e9 193f 6bb3 4fbe
00000120: 803a eabe 7586 afbf 2e1a d33c 89f4 1abd
00000130: 4b98 36bd 2896 303f a88e c93e b3c8 003e
00000140: f239 82be 4fcf 3a3e 8e7d 2dbd b0b8 963e
00000150: 6b71 4ec0 f7d6 0f3f 7ecf 013e b513 14be
00000160: 879b 00c0 4b20 6bbd c58b 2ec0 4ad2 99bf
00000170: 41e9 903e e893 ae3e 5f0a c5bf a55a a8be
00000180: 9cde 86bf 0d17 083d a21d b6be 8c2e eebe
00000190: 0141 4b3f 75c4 a23f f313 753f c169 713f
000001a0: ffa7 b73e 2b4c 593e 53f7 8b3e 4ca4 e63c
000001b0: c32d 6fbe 6950 0bbf cd7c 45bf 6f27 293f
000001c0: b079 bf3c ae2d 90be 50e5 1c3e 3bf6 aa3f
000001d0: 1efb 373f f3c0 c43d def1 563f b6a7 75be
000001e0: eae3 9c3f 5a28 c93d f338 eb3f b9d7 9d3f
000001f0: 516a 1dbf 529f 563f 44c3 313f e32f 4ebe
00000200: e74e 523b 1b57 c73c 9eb7 673e 0754 09be
00000210: 5377 97be 4c9a 523e 98a7 1cbe e5fb 713e
00000220: e18e 283d 1a11 70be 384d 0d3e cb4f 5a3e
00000230: c79c 09be ffe2 9cbe 98ec b8bc e956 06be
00000240: 5ee5 4e3e 80c7 37be a0e0 703e d6c4 783e
00000250: 11b5 493b a5b2 173e b45a 9abe 5348 6dbd
00000260: 9841 433e acdb 61be 3b56 ee3d f934 bcbe
00000270: 6782 823e 4dbd 71bd 6cf4 e03c 3086 1e3d
00000280: 4d72 5d3f 1a1f b6bd 9cb6 f63e 31a9 6a3f
00000290: 5e2f 0f3e 0c0b 35be 5422 e6be 4c4f d5bd
000002a0: 9aff 0a3f dc95 a83f 856d 99bd b625 013d
000002b0: 8292 933d f430 823d b210 893f 8357 0b3f
000002c0: 641b 33bd 0188 11be 4df6 093e 68e6 41bf
000002d0: dd88 933f 66f9 913e 8800 9fbd 7c4a cf3d
000002e0: 22dc 513f 67c7 383e c8f9 0b40 4249 0240
000002f0: c810 533e d73b 363f f153 c83f 23b8 8f3e
00000300: 2d36 81bf 100d 6ebe 3a97 a9be f94f 17bd
00000310: 89c8 583e 2c2d cd3e 1737 283f 2a40 a63e
00000320: f378 68ba b38f b9bc 9db2 5b3e 370e 1abe
00000330: 94c8 4ebe e117 6c3e 8011 043d 60fd fa3e
00000340: 3328 dcbd 3923 95be e050 c53d f75f 4d3e
00000350: 96e4 b73d 4b81 0fbe 257d e93e de52 5abe
00000360: d9eb 8b3e 31bf 973e 97fe 1fbe fe85 b13e
00000370: 6b56 263d 542c 47bf 09f5 b53c 8649 e6bd
00000380: aee4 55be 3d9d b93d faaa 653e 402a 173f
00000390: 4035 413e 76d5 f73e b84d f73d fe55 0bbe
000003a0: 176e 753f 57af 4b3f 98c0 28be 859f 93be
000003b0: 3c32 933e be68 a9be b563 ffbd abb9 9c3e
000003c0: 3180 e5bd 814a e33d aae6 82be 42d8 a4be
000003d0: 1864 483f a4e6 73be ce29 ed3e 078e 68be
000003e0: 8465 bf3f 1a50 a7be b231 f03f 48db 9c3f
000003f0: ca87 343e 733a 75be 3488 d83e d07f df3d
-0.23024748 0.21089272 0.27116612 -0.028168768 -0.028097704 -0.12836292 -0.2155767 -0.12619954
-0.3531878 -0.107955605 -0.08098322 -0.25666365 0.29584622 0.33560959 -0.057233702 0.3240035
-0.009483725 0.33263394 0.26757073 0.21390885 0.18873096 -0.0020115417 -0.09263019 -0.119653255
0.121126756 -0.24670477 -0.22515821 0.12811336 -0.32116592 -0.07363899 -0.279243 0.013818949
-0.3118377 0.017523825 -0.1080414 0.020885494 -0.35668772 0.29816133 -0.3472574 0.113740504
-0.17716548 0.026865771 0.1288177 -0.14317343 0.2427608 -0.37010756 -0.24916883 0.15514183
0.2652029 -0.3336589 -0.08801466 0.03524413 0.057486556 0.3041627 -0.22861987 -0.2577918
-0.36522344 0.070034675 0.20947857 0.07019076 0.18256235 0.15469056 -0.2711498 -0.17942443
0.4959054 -0.025073946 -0.1953745 0.33805063 0.5140099 -0.34092084 0.60122126 -0.20283286
-0.45747757 -1.3712908 0.02576932 -0.037830863 -0.04457883 0.6897912 0.3936665 0.1257656
-0.25434834 0.18243144 -0.042356066 0.2943778 -3.2256725 0.56187385 0.12676808 -0.14460643
-2.0094926 -0.057403844 -2.7272809 -1.20173 0.2830296 0.3409722 -1.539379 -0.32881656
-1.0536685 0.033225108 -0.35569483 -0.46519887 0.79396063 1.2716204 0.95733565 0.9430199
0.35870358 0.21220462 0.2733713 0.028154515 -0.233573 -0.5441957 -0.77143556 0.66075796
0.023373455 -0.2815985 0.15321851 1.3356394 0.7186755 0.09607115 0.8396281 -0.23989758
1.2257054 0.098221496 1.8376755 1.2331458 -0.6149035 0.83836854 0.69438577 -0.20135455
0.0032090486 0.024333527 0.22628638 -0.1341096 -0.29583225 0.20566672 -0.15298307 0.23631246
0.041151885 -0.23444024 0.13798988 0.21319501 -0.13438712 -0.30641934 -0.022573754 -0.13119091
0.20204684 -0.17947197 0.23523188 0.24293837 0.003077809 0.14814241 -0.30147326 -0.057930302
0.19067991 -0.22056454 0.11637541 -0.36759165 0.25490114 -0.059018422 0.0274603 0.03870219
0.86502534 -0.08892651 0.48186195 0.91664416 0.13982913 -0.17679995 -0.44948065 -0.10415515
0.5429627 1.3170733 -0.07491592 0.031530105 0.072056785 0.06356993 1.070822 0.5443041
-0.043727294 -0.14212038 0.13472863 -0.757422 1.1526142 0.28510588 -0.07763773 0.10121629
0.8197652 0.18044816 2.1871204 2.0357213 0.2061187 0.7118506 1.5650617 0.28070173
-1.0094658 -0.2324717 -0.3312319 -0.036941502 0.21170248 0.40073526 0.6570906 0.32470828
-0.00088681205 -0.022651529 0.21454854 -0.15044485 -0.20193702 0.23055984 0.03224325 0.49021435
-0.10749855 -0.29128435 0.09634566 0.20056139 0.08979146 -0.14014165 0.4560329 -0.21320674
0.27328375 0.29638055 -0.15624462 0.3467254 0.04060976 -0.77802014 0.022211568 -0.11244492
-0.20888016 0.09063194 0.22428504 0.59048843 0.1886797 0.48405045 0.120753706 -0.13607022
0.9587111 0.7956442 -0.16479719 -0.2883264 0.28749263 -0.33087724 -0.124701895 0.30610403
-0.11206091 0.11098195 -0.25566608 -0.32196242 0.7827773 -0.23818451 0.46320957 -0.22710429
1.4952855 -0.326783 1.8765166 1.2254419 0.17629924 -0.23948078 0.42291415 0.1091305

arith.constant3 f4 [32, 64]
00000000: b8f0 133e 4471 4d3e 371a 293e f812 5a3e
00000010: 2aa6 20be ee7b 313f 6e86 81bf 061f e2be
00000020: eb8a 0a3f ea17 54be a90a b43e 5b64 33be
00000030: f672 0e3f 2535 833f 3fab f7be 6824 9e3e
00000040: 23d4 193f a1fc 103f 6712 fd3e 11e9 523e
00000050: 3d01 3a3e 347d febe 388f 03bf fcc9 53be
00000060: 1a52 f63c af56 7cbe 9bbc 293f 0029 2a3c
00000070: 41dc de3e f33a d3bf 7999 a0bf fa5b 00bf
00000080: fac0 cc3c 75c3 983e ebae 9f3e 80cd 88bd
00000090: 7c14 473f 78d0 08bf 3a17 cabe de40 e4be
000000a0: 9e0c c8bc c704 d63e ad0b 53be dfc3 713e
000000b0: 0cf9 733d 0841 71be 5d47 143f dc6d 5ebd
000000c0: 1ce3 c7be 2b2b 8cbf 731e 3abe f6cd a63e
000000d0: 729f c6ba 2951 03bf e035 5c3d 6453 33be
000000e0: 8459 5d3e 4bb4 00be ff6b 45be dd2b 0c3f
000000f0: 1d5e 4cbe 57f6 393f eedb 06bf 82b2 eb3e
00000100: d83b ba3d 58a6 d53d 622f 19be 2594 623c
00000110: ab51 0bbe 2235 83be 5790 17be b8a1 993d
00000120: 3805 4e3e 3c9d 58be f22d 60be d7f8 0d3d
00000130: d027 2cbe 0092 6bbd cc50 5c3e 08f0 48be
00000140: b866 a1bd b03a 213e 3ab5 2bbe 5777 633e
00000150: 58fa ac3d ff9e 073d 3c5d 1d3d 68e3 5f3e
00000160: d4d5 66be d592 0dbe 44b3 e7bd d4a1 18be
00000170: e4ac 5bbe 77f2 bf3d 931b 863c 31b6 f13d
00000180: 2169 26be ac83 66be 9016 edbd 2054 f13d
00000190: a092 a3bc 41bd 063c 65e2 53be 8c32 b5bd
000001a0: 89b0 d2bd badf 0bbd 0bc1 59be 9034 673d
000001b0: 595b 70bc 7841 2f3e 256f 113e 1dbb 4ebe
000001c0: 9bc3 383e 5753 85be b02f 103b 82bf d03d
000001d0: cb51 c93d 00c3 6dbe 5837 18be a46f 6ebe
000001e0: 0056 48bd fc82 5d3e 48ea c5bd a790 0dbe
000001f0: d5e2 fd3d 0515 a1bd eb2d 0f3e 6c28 5d3e
00000200: 38e0 d3bd 10f2 053d 7e00 383e e828 a43d
00000210: 9ca1 a1bc da63 2e3f 983a 1abf 5d6d 46bd
00000220: dbf1 3f3e d923 d5bd 73d5 e13e 3f00 66be
00000230: e186 8b3e 9d31 443f 4fc2 b3bd 623f a73e
00000240: 1b40 1c3f 973d fc3d 2bbf 613e 5c52 983e
00000250: 262a 463f 72b1 09bd ae3e 6e3f b87f bdbd
00000260: 3dfd 783e f5f3 5b3d f7d2 2b3f 908a f8bd
00000270: c367 b33e 2b13 08c0 b81e 22bf a5f7 82bf
00000280: d278 42be 99a7 fe3e 4174 b53e e8f6 c13d
00000290: 1776 bf3e 2605 e1bc 834c 45be c6d8 a2be
000002a0: de4d 063e 01a6 ab3e 627c 78be e270 143c
000002b0: e77b 18be 206b 413e e13f 453f 5358 d73e
000002c0: e780 8aba 344a 54be fe0c 2bbd 86f9 d53e
000002d0: d265 aa3e 256f 513d 30be 50be d0ab 84bd
000002e0: 208b 613d 4b04 46be ae28 093f 7488 b73d
000002f0: c257 a3be 7ef8 2a3f bcea 00bf 489d d03e
00000300: d8ab d9bd cca6 313e 2c1e e43d 549e b9bd
00000310: 7ac0 d83d 498b d53e 9266 44bf c463 cbbe
00000320: 73ce 403e a66c 903d 0d29 8b3e 4f3b 9e3e
00000330: b4c6 ed3e fb70 4f3f aa60 fabe 0b77 9f3e
00000340: c361 323f 3d28 373f 8e6f 023f 12b1 ab3d
00000350: 3b3c f6bd 17ae dabe 85ba 8dbf e8f1 57be
00000360: 9ce0 803e 9e3f 87be 9f7a 3c3f 701a 3bbd
00000370: 6339 cc3d 75ea 06c0 7dbe 48bf 15a8 1abf
00000380: 71f7 67be 9542 ce3e dc04 563e 0c84 68be
00000390: 907b 113f 62d1 89be 7e63 a6be 30c9 c83b
000003a0: 7195 b33e b950 7d3e d1b5 81be 618a bf3e
000003b0: fedf 87bc 7cc9 283e 09f1 683f b179 473e
000003c0: 1220 62be 4830 ecbe 89e3 ad3e 57d3 883c
000003d0: 8a51 b83e 9602 ee3d f8ab 9cbd 887c cdbd
000003e0: c08e 6dbe 83ea 773e 853b 8ebe 3ecf 933e
000003f0: 343f 12be 5dd1 6b3f ced3 cabe 01bc 0b3f
0.14447296 0.20062739 0.16513906 0.21296299 -0.15688387 0.69329727 -1.011915 -0.44164294
0.5411822 -0.20712247 0.35164383 -0.17518751 0.55644166 1.0250593 -0.48372838 0.3088715
0.6008932 0.5663548 0.49428102 0.2059672 0.18164535 -0.49704897 -0.5139041 -0.2068252
0.030068446 -0.24642442 0.66303414 0.010385752 0.43527415 -1.6502365 -1.2546836 -0.50140345
0.024994362 0.29836622 0.3118814 -0.06679821 0.7776563 -0.534431 -0.39470845 -0.4458074
-0.024420079 0.4180052 -0.20609923 0.23609875 0.05956368 -0.23559964 0.5792139 -0.05430399
-0.39040458 -1.0950674 -0.18175678 0.3257901 -0.001515372 -0.51295716 0.053762317 -0.1751228
0.21616179 -0.12568776 -0.19279478 0.5475443 -0.19957776 0.7264151 -0.52679336 0.46034628
0.090934455 0.10432118 -0.14959481 0.013829266 -0.13605373 -0.25626475 -0.14801155 0.075015485
0.20119178 -0.2115373 -0.21892527 0.03466114 -0.16812062 -0.057512283 0.21515197 -0.19622815
-0.0788092 0.15745044 -0.16768351 0.22213493 0.08446187 0.033110615 0.038418993 0.21864092
-0.22542506 -0.13825543 -0.11313489 -0.14905483 -0.21452671 0.093724184 0.01637057 0.118023284
-0.16251041 -0.22511166 -0.11576569 0.11783624 -0.019967377 0.008223833 -0.20691831 -0.08847532
-0.10287578 -0.03414891 -0.21265046 0.056446612 -0.0146702165 0.17114818 0.14202555 -0.20188566
0.18043368 -0.26040146 0.002200108 0.10192777 0.09830054 -0.23218918 -0.14864862 -0.23284775
-0.04891014 0.21631998 -0.09663826 -0.13824712 0.123967804 -0.07865337 0.1398236 0.21597451
-0.10345501 0.032701552 0.17968938 0.08015615 -0.019730382 0.6812111 -0.60245657 -0.04844414
0.18744604 -0.10407228 0.4410816 -0.22461031 0.27251342 0.76638204 -0.08777296 0.32665545
0.6103532 0.12316435 0.22045581 0.29750335 0.77408063 -0.03361649 0.9306439 -0.09252876
0.24315353 0.053699452 0.6711878 -0.12135804 0.350401 -2.12617 -0.63328123 -1.0231825
-0.18991402 0.49737242 0.35440257 0.09470922 0.37394783 -0.027468275 -0.19267468 -0.3180601
0.13115641 0.33525088 -0.24266198 0.0090601165 -0.14891015 0.18888521 0.77050596 0.42059574
-0.001056698 -0.20731431 -0.041760437 0.41791934 0.33280808 0.051131386 -0.20385051 -0.06478083
0.05506432 -0.19337575 0.535777 0.08961573 -0.3190289 0.6678542 -0.50358176 0.40744996
-0.1062848 0.17348784 0.11138567 -0.09063402 0.10583587 0.4170783 -0.7671901 -0.39724553
0.18828754 0.07051973 0.27179757 0.30904624 0.4644066 0.8103177 -0.48901874 0.3114551
0.6968042 0.71545774 0.5095147 0.08383383 -0.12023207 -0.42710945 -1.1072546 -0.21088374
0.25171363 -0.26415724 0.73624605 -0.04567951 0.09971883 -2.1080601 -0.7841566 -0.6041272
-0.22652985 0.40285173 0.20900291 -0.22706622 0.56829166 -0.2691756 -0.32497782 0.006127499
0.35074952 0.24737824 -0.25334027 0.37410262 -0.0165863 0.1648311 0.9099279 0.19480015
-0.22082546 -0.46130586 0.33962658 0.016702337 0.3599971 0.11621587 -0.07649988 -0.10033518
-0.23198986 0.24210553 -0.27779785 0.2886905 -0.14281923 0.9211634 -0.3961472 0.54583746

functional_1_1/dense_1_2/Add/ReadVariableOp f4 [32]
00000000: 77c3 ec3e 7775 e4bc 4aa4 803e 45f3 123f
00000010: 36d1 613e aefa c5bd 4664 013f bde9 09be
00000020: 7fa3 eabc de2a b0bb 0cc7 41bd 4455 25bd
00000030: c4fa 43bd 61bb 133f 3916 163f 807e d23e
00000040: bea1 61bd ee43 dbbc 01a9 55bd acfc 36be
00000050: adfb 7bbe d0aa 293f 7db9 63bb 2c73 83bd
00000060: ade7 25be 37bd e73d 2bb2 003d 5031 c53d
00000070: 99de 123f 1076 b73d 38b0 54bd 0000 0000
0.46242878 -0.027888043 0.25125343 0.5740245 0.22052464 -0.09666954 0.5054363 -0.1346807
-0.028642414 -0.005376204 -0.047308967 -0.04036452 -0.04784657 0.5770779 0.5862766 0.41112137
-0.05508589 -0.02676579 -0.052163128 -0.17869824 -0.24607725 0.66276264 -0.003474801 -0.06418452
-0.16201659 0.11315387 0.031419914 0.09628546 0.5737091 0.089580655 -0.051925868 0.0

functional_1_1/dense_1/Add/ReadVariableOp f4 [64]
00000000: aafc b4bb 0000 0000 4d89 8dbd 5bb9 78bd
00000010: 7338 1b3e 228d 5e3e fb39 9abe 30cc 25be
00000020: f643 e43e dba1 2bbe 3eca 173d ed65 24be
00000030: 86d0 a43e db6d fe3e e087 c13d afa4 d53d
00000040: a8f9 c23e 0aa4 483e 6737 953e 0964 cbbc
00000050: 2159 9abe ff9d 523c 0599 55bf 9d91 52bd
00000060: 43c0 1abe e272 283e 07d0 cf3e 0000 0000
00000070: 1844 053e 24bc dd3e d818 8b3e d837 febe
00000080: 73b2 103e 86d5 853e 63fc 603e 0000 0000
00000090: 4989 843e 491b dcbe 26af 40be fc28 dbbc
000000a0: e757 953e 0ff9 333d 439c a73c 1853 2c3e
000000b0: ce9e c6bc 0000 0000 36ae 7c3e 150c ccbd
000000c0: 5363 553e 1c08 423e 571c fabc f22a 163e
000000d0: f9a4 7abd b42d d03c 8d82 b4bb 0000 0000
000000e0: 0000 0000 6d54 09bd 18ff 13bf 5d11 af3e
000000f0: 6cd8 cabd 70a8 8d3e 6204 99be da56 803c
-0.005523284 0.0 -0.06910954 -0.060723644 0.15158252 0.21733525 -0.3012236 -0.16191173
0.445831 -0.16760962 0.037058108 -0.16054507 0.3219034 0.49693188 0.09449744 0.104318015
0.38081098 0.19593826 0.2914383 -0.024827974 -0.30146125 0.012855052 -0.83436614 -0.0514084
-0.15112405 0.16450074 0.405884 0.0 0.13014257 0.43307602 0.27167392 -0.4965198
0.14130573 0.26139468 0.21971278 0.0 0.2588599 -0.42989567 -0.18816814 -0.026752941
0.29168627 0.043938693 0.020460254 0.16828573 -0.024245646 0.0 0.24675831 -0.09963242
0.2083867 0.18948406 -0.030531092 0.1466482 -0.061192486 0.025412418 -0.005508727 0.0
0.0 -0.03352778 -0.5781112 0.34192935 -0.099045604 0.2766757 -0.29886156 0.015666414

functional_1_1/dense_2_1/Add/ReadVariableOp f4 [16]
00000000: 7914 86bc f6af 37bd 03ed a83e 9dc8 4e3e
00000010: ef26 62bd 9d62 9d3e 18be 613e bc74 b7bc
00000020: 2dfd 983e 12d5 a73e 1420 4e3f ec27 90be
00000030: 75a6 42bd 1e4f 033f ad1a 973e eb18 cb3e
-0.016367184 -0.044845544 0.32993326 0.20193715 -0.05521291 0.30739298 0.22045171 -0.02239453
0.29880658 0.32779747 0.805177 -0.28155458 -0.047522027 0.512926 0.2951254 0.39667448

functional_1_1/stunting_output_1/Add/ReadVariableOp f4 [4]
00000000: fbef 333f 813a 94be b246 33be 6936 ffbe
0.70288056 -0.28950885 -0.17507437 -0.498462

functional_1_1/wasting_output_1/Add/ReadVariableOp f4 [4]
00000000: ebea 4a3e 75d6 6b3d 80cb 073f 3a2a 25bf
0.19816177 0.05757757 0.5304489 -0.6451756

functional_1_1/dense_1/MatMul f4 [64, 4]
00000000: 80dd 22bd 5c3f 75bd 5293 9ebd 92d0 7f3a
00000010: 304b bcbc 688d 6b3d 63c4 57be ec42 39be
00000020: 1e71 3e3d e4b3 e0be 9e59 5b3f e96f b63e
00000030: 2af2 2e3e 003d f4be da29 ef3e 5afc 023f
00000040: 7a7d 39bb 4346 683e 6013 27bf f2d2 563f
00000050: 33fc 853d 6280 f33e e048 9b3e d837 66bf
00000060: e0dc 363e b7a7 dc3c f42d 77bd a8a4 763f
00000070: 54e7 d83d ee11 063f 1f18 b6be 76e6 353f
00000080: 9284 35bf 033e b03e b2b5 0bbe 3042 3abd
00000090: 76be 8ebb 088b 6f3e 5e9c 863e 458d de3e
000000a0: 60c0 82bd 16db edbd d14d 433f 4e64 39be
000000b0: a0e0 0c3e fef8 febe 25b9 513f cd14 7e3e
000000c0: 9e8b 1e3e d652 1e3f afbe e9be a8a0 adbe
000000d0: 8477 53be df42 f3bc 5047 a53d 2412 48bf
000000e0: dac7 2d3d 41c4 e73d fe5d 12bf dce1 5b3f
000000f0: 8b66 ac3e d2c1 493e 31c0 6ebe 045a 1fbf
00000100: 6f33 3c3e 15b3 2a3e b130 593e 58c4 50bf
00000110: e24c e7bd aa4c ae3e e57f 873e 631f 2dbf
00000120: 0393 1bbe b9aa 2a3f e3a6 403e ef73 16bf
00000130: bbf2 dc3d 7ac3 14bf 6d64 723f 259b 333d
00000140: 8bc8 493d 10b4 213f 1179 7b3d 964a babe
00000150: 3786 9e3c 7e6f 9f3c ad81 b6be 0f9a 683f
00000160: e2b3 18bc 79cd 343f 4929 1b3e 00a2 f53e
00000170: d336 3b3c 60d8 a1be de5a 4dbc 62d6 5a3f
00000180: 6f7b 303c f0d4 52be c339 8d3f 86b3 483d
00000190: 29c9 1c3c e9de a23e edc8 23bf bdcd 0d3f
000001a0: 16bc 8ebd e1e8 1d3f c32f b3be dbee 4bbe
000001b0: 9e2f 24be e08a 233c f080 8cbc e398 18be
000001c0: aed2 a43e a16b 8d3e 4f2a fdbe 5652 b0be
000001d0: 22a8 d33c 810a 62c0 1a08 a63d 9fe7 df3d
000001e0: 1039 003e 690d e3bf 3dd4 8d3e 29d2 443e
000001f0: e022 9ebe 251c e53d 5ed9 483f 5442 693d
00000200: 399b 003e d92d 4ebd 6c4d 06bf a4aa 213f
00000210: 2711 ea3d 3d51 2b3f 5848 02bf 27a0 fabd
00000220: 2013 1a3e d29f d43e ee46 e4be 1c67 96be
00000230: 409f 92be e8a2 fdbd bd41 91be 10b9 a0bc
00000240: 44ce b6bc 1062 5f3e e8a4 1d3e 76af 39bf
00000250: 24ac b33d 948f 96bd fe26 6c3f a13e a33e
00000260: e94d f4bd 97c9 743e cbf3 913c 0060 793f
00000270: c228 ac3d 1fca 09bf f1cb 533d d645 5f3f
00000280: acc9 79bc 73f5 213f b4cd 51bf 5eb3 d53d
00000290: 246d b83d eb58 afbe ec89 613f 4b03 8dbe
000002a0: 2672 943a e342 1abe 3a94 80be b593 5c3f
000002b0: eb45 8c3c acef c7bc a945 c43e b3b7 ebbe
000002c0: 9e05 93be 10b7 7cbe 5ea9 e43a 7ae2 9d3d
000002d0: 8bb0 8abe 71dc 53be 84bc 52be d073 52bd
000002e0: dcb9 d53b 5ff4 0f3f 99a2 6c3e e31f 5abf
000002f0: d3ca 183e 4032 95be 90e1 673f b93b 7a3d
00000300: c4d5 b6bc 3741 943e c2d3 27bf 0837 023f
00000310: 991f bbbe d3f7 94bf 0924 d63e a127 563e
00000320: 9787 803c dc34 17bf cda0 253f 972c a03e
00000330: 4999 12bc 1da2 113f c86a f3be 5f70 6f3b
00000340: 7614 203c 007d 87be e395 473f e25d f6bd
00000350: 32cc fdbb 102b 9abd ebfe 9abe 8ff9 6b3f
00000360: ac58 52be 39a0 76be 491a 61be 4e80 b13b
00000370: f550 3fbe 8804 7cbd 2008 13bd cb86 81be
00000380: 802a bdbd 0016 763c 90f3 cfbc 30ed e9bc
00000390: be9f b6bc 1230 1dbf 3474 343f 367b 193f
000003a0: a176 acbb 6ddb 5a3e 7ebb 363f 08e2 c33e
000003b0: 8709 aaba f2de d93e bfcf 07bf dadf 53be
000003c0: 3aef 873c c88a 4fbe 81b9 12be f9bd 723f
000003d0: e10a 493d b58c 0b3f 4e48 463c dee2 3dbf
000003e0: 2aba 443e 712d 9dbe b3f6 0d3f 127a 293f
000003f0: a8c9 9b39 2000 42be 7acd 6b3f e138 03be
-0.03976202 -0.059874877 -0.07742943 0.00097585574 -0.022985071 0.057507902 -0.2107101 -0.18091935
0.046494596 -0.43887246 0.8568362 0.35632256 0.17084566 -0.4770279 0.46711618 0.5116631
-0.002830355 0.22683053 -0.6526394 0.83915627 0.06542244 0.47558886 0.30329037 -0.8992896
0.17857695 0.026935441 -0.06034656 0.96344995 0.10590997 0.5237111 -0.35565278 0.7105478
-0.7090541 0.3442231 -0.1364353 -0.045473278 -0.004356201 0.2339288 0.26291174 0.43467155
-0.06384349 -0.11614053 0.76290613 -0.1810467 0.13757563 -0.4979934 0.81923133 0.24812622
0.15482947 0.6184515 -0.45653293 -0.33911633 -0.2065106 -0.029694973 0.080702424 -0.7815268
0.04242692 0.11316729 -0.5717467 0.8589151 0.33671984 0.19702843 -0.23315503 -0.6224673
0.18378995 0.16669877 0.2120998 -0.81549597 -0.11293961 0.34042865 0.26464763 -0.6762602
-0.151928 0.6666675 0.18813662 -0.5877065 0.10788485 -0.58110774 0.9468449 0.04384913
0.04926352 0.6316538 0.061394755 -0.3638503 0.019351108 0.019462343 -0.3564581 0.90860075
-0.009320231 0.70626026 0.15152468 0.4797516 0.011426645 -0.31610394 -0.012533871 0.8548337
0.010771616 -0.20589042 1.1033252 0.048999332 0.009569445 0.31810692 -0.63978463 0.55392057
-0.06969468 0.6168347 -0.34997377 -0.19915335 -0.1603379 0.009981841 -0.017151326 -0.14902072
0.32191986 0.27621177 -0.4944634 -0.34437817 0.025837008 -3.531891 0.08107014 0.1093285
0.12521768 -1.7738467 0.27700987 0.19220795 -0.30885983 0.11187009 0.78456676 0.05694802
0.12559213 -0.050336692 -0.52461886 0.63151 0.11429053 0.66920835 -0.5089164 -0.12237578
0.15046358 0.41528183 -0.44585365 -0.2937554 -0.28637123 -0.123845875 -0.28370467 -0.019619495
-0.022315152 0.21814752 0.15394938 -0.7253336 0.087730676 -0.07351604 0.92247 0.3188372
-0.11928923 0.23905025 0.017816445 0.9741211 0.084062114 -0.5382404 0.051708166 0.87215936
-0.015245836 0.6326515 -0.81954503 0.10434602 0.09005192 -0.34247527 0.8810108 -0.27541575
0.0011325523 -0.15064578 -0.25113088 0.86162883 0.017123183 -0.024406277 0.38334396 -0.4603859
-0.28715223 -0.24679208 0.0017445495 0.077092126 -0.27087817 -0.2068956 -0.20579726 -0.05137998
0.0065224003 0.56232256 0.23108901 -0.85204905 0.14921121 -0.291399 0.90578556 0.061092112
-0.022318728 0.28956005 -0.6555749 0.5086522 -0.36547545 -1.163813 0.41824368 0.20913555
0.015689654 -0.5906503 0.6469849 0.3128402 -0.008947679 0.5688799 -0.47542405 0.0036535484
0.009770503 -0.26462555 0.77963084 -0.120296255 -0.0077452892 -0.07527745 -0.30272612 0.9217767
-0.20541638 -0.24084558 -0.21982683 0.0054169064 -0.18683226 -0.06152776 -0.03589642 -0.2529815
-0.09236622 0.015019894 -0.025384694 -0.028555483 -0.022292968 -0.61401474 0.7048981 0.5995363
-0.005263165 0.21372767 0.7137984 0.38258386 -0.001297281 0.42552906 -0.5305137 -0.20690861
0.016593564 -0.20267785 -0.14328577 0.94821125 0.04908264 0.54511577 0.0121022 -0.74174297
0.19211641 -0.30698732 0.5545456 0.6620189 0.0002971415 -0.1894536 0.9211041 -0.12814666
