app/src/main/ml/model_2.tflite (tflite, 14880 bytes, 8 tensors)

arith.constant f4 [3, 16]
-0.03173714 -0.48528424 0.33416674 -0.07154905 -0.4571805 0.25724584 0.27899086 -0.6967998
0.34515467 0.6799973 -0.38551936 0.58430743 0.6646942 -0.54576254 0.34531993 -0.013209132
-0.047620762 -0.35845304 -9.932765e-05 0.610844 -0.39854348 0.26135322 0.66026276 0.37085804
-0.30948436 -0.09386565 0.5640179 0.3451351 -0.020081818 -0.270438 -0.37504646 -0.41465914
-0.62787884 0.05359257 -0.61449635 -0.034148585 0.42701918 -0.9662953 -0.51734495 0.32142448
-0.17168589 -0.37155062 0.32414204 -0.6127613 -0.29880825 0.19890442 0.6478369 0.41780737
00000000: cefe 01bd 2d77 f8be e717 ab3e 4f88 92bd
00000010: 9013 eabe bab5 833e e4d7 8e3e 7961 32bf
00000020: 1db8 b03e 4e14 2e3f cb62 c5be 2c95 153f
00000030: 6629 2a3f 18b7 0bbf c6cd b03e 1d6b 58bc
00000040: fd0d 43bd 2887 b7be 204e d0b8 4660 1c3f
00000050: e40d ccbe 17d0 853e fb06 293f 1be1 bd3e
00000060: bc74 9ebe a23c c0bd 7a63 103f 8cb5 b03e
00000070: a082 a4bc d976 8abe 1706 c0be 344e d4be
00000080: abbc 20bf e283 5b3d a24f 1dbf 63df 0bbd
00000090: 42a2 da3e 215f 77bf b870 04bf c091 a43e
000000a0: 6dce 2fbe e23b bebe f2f5 a53e eddd 1cbf
000000b0: 65fd 98be 9aad 4b3e a4d8 253f d9ea d53e

arith.constant1 f4 [16, 32]
-0.14516842 0.38635126 -0.07103347 -0.08133879 -0.29638657 0.32306916 0.4003865 -0.28446218
-0.27710986 -0.44464865 0.3370013 -0.19968325 -0.4775966 0.16446784 0.27148655 -0.17362465
0.100381404 0.35221046 0.03135422 -0.13433689 0.14121799 0.36184612 -0.2650218 0.07802822
0.33878455 0.12621538 -0.20115794 -0.36139745 0.08864807 0.5325617 0.07088694 0.4667439
-0.030202193 -0.1196592 -0.37162682 -0.35187 -0.086357534 0.25283366 -0.056978364 0.10582551
-0.21459901 -0.13360557 -0.3368908 0.017776012 0.09399908 -0.36934865 0.021035975 -0.23462348
-0.2876978 -0.35960764 -0.16150942 -0.02941659 -0.009708852 -0.336101 0.25398907 0.23333223
-0.3001767 0.25207558 0.32146087 0.11987008 0.157431 0.11135307 0.108507395 0.15178795
0.20203586 0.58870226 -0.4535889 0.21482462 -0.28468654 0.21675469 -0.11229352 -0.17214556
-0.29978454 -0.22675101 -0.265513 -0.3489716 -0.41061735 0.1708768 0.16045423 -0.11989913
-0.12304194 0.3518292 -0.091383725 0.2166826 -0.5367954 0.30709958 0.2076906 0.31313765
0.17914665 -0.06685384 -0.6221114 0.0127313165 -0.014886956 0.1513339 0.1282177 -0.06260465
0.3072691 -0.47020814 -0.120397694 -0.32203284 -0.06053087 -0.46480072 0.37669834 0.26840055
0.028832227 0.11124166 -0.21468146 0.35236183 0.31799832 -0.7234909 -0.096861616 0.054318897
-0.005735632 -0.28723943 0.25543907 -0.26029804 0.58188415 -0.15729102 0.08451975 0.33683944
0.10881762 0.5657693 0.3909934 0.024286153 0.47843257 -0.395875 -0.43447858 0.3638334
0.047448993 0.51750535 0.29397154 -0.32234287 0.0862622 0.11592175 -0.052818008 0.078691885
0.1196838 0.1259979 0.12059605 -0.25474212 -0.090921395 -0.15049468 -0.41586697 0.2639707
-0.12418444 0.26349548 0.17974451 -0.3233237 -0.13422953 -0.47815457 0.18787591 0.2881008
-0.10472829 0.0630141 -0.093790464 0.2255217 -0.6217514 -0.12820321 0.33163327 0.06897872
0.25426593 -0.0022843622 -0.3207047 -0.12948737 0.3153909 0.081895106 0.62033224 0.30732536
0.08039224 -0.39368477 0.049823463 -0.18196876 -0.5747561 0.3037394 0.31817463 -0.28180096
0.15644751 0.10998509 0.33009765 -0.23880365 -0.3007947 0.37325984 -0.20104802 0.36953962
0.36995143 0.4972292 -0.5200223 -0.2523766 0.5688085 -0.04464896 -0.28290287 0.20407863
0.27838036 -0.07987125 0.17019796 0.20641924 0.012309492 0.12719974 0.08925975 -0.102447174
0.23158774 -0.36920914 -0.21033123 0.1757876 -0.62014985 -0.3194909 0.35640302 0.040489204
-0.3851082 -0.18342151 0.1208103 -0.35269085 0.056650892 0.4869371 -0.113051526 -0.19731607
-0.28223953 -0.027933381 -0.4766635 -0.06418101 0.45952198 -0.012674973 0.11189006 0.3465798
0.1966134 -0.2069429 0.33855602 -0.29601017 -0.027483284 -0.063040085 0.25413585 -0.19962905
0.11980814 0.4492361 -0.12983143 0.27480564 0.5167542 -0.56645447 -0.18295671 0.2920233
0.20043847 -0.14147443 0.070877165 0.30508402 -0.0869224 0.111853465 0.050892018 0.17174885
-0.19247104 0.12298607 0.62570935 0.28464916 -0.06257274 -0.37480688 -0.29264513 -0.0842021
00000000: 08a7 14be d5cf c53e ff79 91bd f494 a6bd
00000010: fbbf 97be 5269 a53e 76ff cc3e 07a5 91be
00000020: 58e1 8dbe fda8 e3be 6f8b ac3e c479 4cbe
00000030: 8b87 f4be 426a 283e 4900 8b3e a9ca 31be
00000040: c494 cd3d ee54 b43e 486d 003d 9c8f 09be
00000050: 739b 103e e543 b93e f0b0 87be 42cd 9f3d
00000060: 2b75 ad3e 9b3e 013e 59fc 4dbe 1609 b9be
00000070: 1f8d b53d f755 083f 2c2d 913d 0ef9 ee3e
00000080: 976a f7bc e20f f5bd df45 bebe 4e28 b4be
00000090: 38dc b0bd 6a73 813e 2562 69bd 0cbb d83d
000000a0: d8bf 5bbe e6cf 08be f37c acbe 009f 913c
000000b0: 9782 c03d 441b bdbe a353 ac3c 2341 70be
000000c0: 204d 93be 7e1e b8be ba62 25be 10fb f0bc
000000d0: e011 1fbc 6e15 acbe db0a 823e a5ee 6e3e
000000e0: c3b0 99be 0d10 813e 8596 a43e 727e f53d
000000f0: 9835 213e 140d e43d 2039 de3d 4d6e 1b3e
00000100: 7de2 4e3e 31b5 163f ce3c e8be fcfa 5b3e
00000110: 6fc2 91be f1f4 5d3e 25fa e5bd ed46 30be
00000120: 5c7d 99be 6b31 68be 52f1 87be 68ac b2be
00000130: 703c d2be 54fa 2e3e 1d4e 243e ad8d f5bd
00000140: 6afd fbbd f522 b43e 6427 bbbd 0be2 5d3e
00000150: 6c6b 09bf 283c 9d3e d8ac 543e 9453 a03e
00000160: 3872 373e abea 88bd b142 1fbf 0397 503c
00000170: 6be8 73bc 46f7 1a3e 804b 033e de36 80bd
00000180: 6052 9d3e 1fbf f0be 1193 f6bd 7de1 a4be
00000190: 38ef 77bd 5cfa edbe 9bde c03e cc6b 893e
000001a0: 9031 ec3c abd2 e33d 75d5 5bbe c568 b43e
000001b0: add0 a23e b336 39bf 625f c6bd 7e7d 5e3d
000001c0: f8f1 bbbb 0c11 93be e9c8 823e c945 85be
000001d0: 5cf6 143f e610 21be b118 ad3d 3876 ac3e
000001e0: c6db de3d 42d6 103f 4930 c83e c1f3 c63c
000001f0: 1df5 f43e 21b0 cabe fa73 debe 5f48 ba3e
00000200: e059 423d 3b7b 043f 7083 963e 200a a5be
00000210: 3caa b03d 6268 ed3d b257 58bd 3629 a13d
00000220: c81c f53d 9805 013e 10fb f63d 8f6d 82be
00000230: ff34 babd 471b 1abe 84ec d4be 2b27 873e
00000240: 6954 febd e1e8 863e f20e 383e af8a a5be
00000250: 7773 09be add0 f4be 8b62 403e f381 933e
00000260: c97b d6bd 890d 813d 3715 c0bd 29ef 663e
00000270: 1a2b 1fbf b447 03be d6cb a93e b744 8d3d
00000280: 252f 823e 3db5 15bb 6833 a4be 5698 04be
00000290: eb7a a13e 9fb8 a73d 18ce 1e3f c059 9d3e
000002a0: b0a4 a43d 0d91 c9be b013 4c3d 0556 3abe
000002b0: 3723 13bf bb83 9b3e c9e7 a23e 3748 90be
000002c0: c733 203e dd3f e13d 8f02 a93e f288 74be
000002d0: c301 9abe ea1b bf3e 88df 4dbe 4c34 bd3e
000002e0: 466a bd3e d394 fe3e 2e20 05bf 8137 81be
000002f0: 6f9d 113f d4e1 36bd a5d8 90be fdf9 503e
00000300: df87 8e3e 8a93 a3bd 6048 2e3e 915f 533e
00000310: c0ad 493c a640 023e d1cd b63d d3cf d1bd
00000320: 5625 6d3e fb08 bdbe 1261 57be aa01 343e
00000330: 24c2 1ebf 5094 a3be 757a b63e 02d8 253d
00000340: e72c c5be d9d2 3bbe 646b f73d e593 b4be
00000350: c40a 683d d24f f93e 8f87 e7bd 390d 4abe
00000360: b381 90be 8cd4 e4bc 3d0d f4be 5571 83bd
00000370: 7746 eb3e b1aa 4fbc 9e26 e53d e872 b13e
00000380: 0655 493e d7e8 53be 3757 ad3e a58e 97be
00000390: a024 e1bc 291b 81bd 181e 823e 8f6b 4cbe
000003a0: f85d f53d 4602 e63e 88f2 04be 53b3 8c3e
000003b0: 014a 043f 2903 11bf 0159 3bbe 1484 953e
000003c0: be3f 4d3e acde 10be 0c28 913d f933 9c3e
000003d0: 5f04 b2bd 6e13 e53d 2674 503d eede 2f3e
000003e0: 2117 45be 1fe0 fb3d 7d2e 203f 89bd 913e
000003f0: 2326 80bd b0e6 bfbe 95d5 95be 2772 acbd

arith.constant2 f4 [32, 64]
-0.0590716 0.24948831 0.114889026 -0.23334175 0.049816545 -0.09637002 0.10584318 0.02141449
0.08823876 0.03481032 0.067015596 -0.05139511 0.20418596 -0.04027231 0.2190624 -0.14124134
0.14661959 -0.11512435 0.31425893 0.21740852 0.16702656 0.111264706 0.005191024 -0.24252802
-0.061981324 0.034540236 -0.11094904 0.013539583 0.18122452 -0.037844382 0.10006231 -0.13670771
0.24387461 0.1460242 0.21209028 -0.09331572 0.0044763526 -0.23816979 0.1988076 0.16723566
0.064130515 0.10002632 0.19159633 -0.08970009 -0.31053895 0.06990941 -0.03721913 0.10282121
-0.05048739 -0.1140057 0.1327069 0.23658694 -0.5512873 -0.4774062 0.07734382 -0.0077189207
-0.107343905 0.1998257 0.25824043 -0.09786046 0.02389359 0.17309952 -0.11359123 -0.17955393
-0.20167482 0.04160047 -0.06258458 0.20391941 0.39750335 0.061300926 -0.09932115 0.14256385
-0.27203622 -0.015799765 0.061207585 -0.23866262 0.072886795 -0.028115116 0.23526148 -0.05793771
-0.07782532 -0.047996692 -0.049162183 -0.0026045793 -0.35829866 -0.05238909 -0.35154855 0.033423007
-0.18806829 0.2096118 0.2669577 0.26793507 -0.17944801 -0.19138186 0.047137473 -0.3002542
-0.5588235 -0.16322452 -0.23057948 0.24620867 0.36512223 0.17870277 -0.15916894 -0.038277235
0.325801 -0.09491599 -0.13095015 -0.069141775 0.091991715 -0.3347426 -0.03917803 0.11713521
-0.093499705 -0.07350377 -0.20549016 -0.27060327 -0.18620457 -0.45810562 0.03975568 -0.20745742
-0.013602468 -0.070648134 0.2369913 0.18203227 0.12538359 -0.026714683 0.1514397 0.055985026
0.06971697 0.1197283 -0.12247294 0.17178518 -0.25930992 0.4793582 0.21138008 -0.14774504
0.34660658 -0.10690392 0.31140113 -0.25252295 0.028210863 0.12153823 0.22553939 0.30679488
0.3081374 -0.16820477 0.4091991 -0.10282906 -0.084697194 0.07539537 0.28804976 -0.1880694
0.2836887 0.074753046 0.033679236 0.27378556 0.012276769 0.1228207 0.29562327 -0.13526586
0.011630423 0.21441655 -0.32019696 -0.13613385 -0.044557557 -0.081403494 -0.21556002 0.25966895
-0.0088250395 0.093919925 0.013687789 0.0047895378 0.009563613 -0.19570486 -0.31035632 0.029341869
-0.21687873 0.10037686 -0.1887645 0.10457904 -0.15769868 0.025014635 -0.10989443 0.24307626
-0.03942794 0.23406243 -0.20415673 -0.5196616 -0.31897512 0.14928675 0.05287421 0.14106795
-0.17567211 -0.2356816 0.21015716 -0.019782186 0.13785902 0.40129372 -0.12408877 -0.27453893
-0.06219697 -0.05692387 0.21860324 0.019596815 0.038283333 -0.06509326 -0.15735562 0.21204704
0.34019086 -0.14911084 -0.11491617 0.14666978 -0.21570219 -0.2097136 0.19651598 0.042645514
-0.14694935 0.05330938 -0.42839915 0.17611271 0.051736534 0.16179875 0.185985 0.19728215
-0.23148265 0.014850776 -0.015260168 -0.08368379 0.45999435 -0.13131452 -0.10926306 -0.21630925
0.12495473 0.114588976 0.13538653 0.07074314 -0.102687396 0.122003555 0.28703758 0.006508859
0.08725101 -0.070669405 -0.25088897 -0.07274455 0.18867451 -0.16421334 0.04043294 0.052878916
0.2853949 0.16036141 0.22636233 0.16952594 0.15619904 -0.2098673 0.17191532 -0.37634256
00000000: 10f5 71bd dd79 7f3e f04a eb3d 24f1 6ebe
00000010: 6f0c 4c3d a55d c5bd 4fc4 d83d 716d af3c
00000020: 86b6 b43d 4495 0e3d 793f 893d ae83 52bd
00000030: 2016 513e 94f4 24bd e551 603e 92a1 10be
00000040: 7223 163e 51c6 ebbd 8ce6 a03e 57a0 5e3e
00000050: 0309 2b3e c0de e33d 7719 aa3b 4459 78be
00000060: 21e0 7dbd 107a 0d3d 4039 e3bd 21d5 5d3c
00000070: ec92 393e b602 1bbd 78ed cc3d 1bfd 0bbe
00000080: 44ba 793e 5e87 153e 322e 593e 501c bfbd
00000090: 5eae 923b c8e2 73be 3894 4b3e d33f 2b3e
000000a0: dc56 833d 99da cc3d d431 443e aeb4 b7bd
000000b0: f6fe 9ebe aa2c 8f3d 1673 18bd ed93 d23d
000000c0: decb 4ebd d27b e9bd 51e4 073e d943 723e
000000d0: 2a21 0dbf 966e f4be 7066 9e3d 00ef fcbb
000000e0: 1fd7 dbbd 1c9f 4c3e 1738 843e 116b c8bd
000000f0: 7dbc c33c 0041 313e 85a2 e8bd fcdc 37be
00000100: d883 4ebe 4165 2a3d 582c 80bd 40d0 503e
00000110: 8f85 cb3e ae16 7b3d e368 cbbd 42fc 113e
00000120: 5548 8bbe 826e 81bc ceb4 7a3d f963 74be
00000130: ac45 953d ac51 e6bc 63e8 703e 1850 6dbd
00000140: e262 9fbd 2e98 44bd 495e 49bd 97b1 2abb
00000150: ec72 b7be f195 56bd 2cfe b3be 90e6 083d
00000160: f994 40be 7aa4 563e aeae 883e c92e 893e
00000170: 38c1 37be 9bf9 43be 3913 413d ebba 99be
00000180: 0f0f 0fbf 5424 27be 071d 6cbe 201e 7c3e
00000190: 4df1 ba3e dcfd 363e 2ffd 22be 97c8 1cbd
000001a0: 64cf a63e 5163 c2bd cc17 06be 349a 8dbd
000001b0: 2766 bc3d 6263 abbe 2479 20bd 96e4 ef3d
000001c0: c67c bfbd 2589 96bd 036c 52be 838c 8abe
000001d0: 69ac 3ebe d28c eabe dad6 223d b86f 54be
000001e0: e3dc 5ebc f8af 90bd d9ad 723e ab66 3a3e
000001f0: 8e64 003e c0d8 dabc 0213 1b3e 8e50 653d
00000200: c5c7 8e3d 1c34 f53d 18d3 fabd 74e8 2f3e
00000210: 45c4 84be 706e f53e 0574 583e 7a4a 17be
00000220: 6b76 b13e 71f0 dabd f86f 9f3e b04a 81be
00000230: 781a e73c 09e9 f83d ccf3 663e 3814 9d3e
00000240: 2fc4 9d3e df3d 2cbe 8b82 d13e 0b98 d2bd
00000250: b975 adbd e368 9a3d 427b 933e 4495 40be
00000260: a53f 913e 2018 993d 3df3 093d 9f2d 8c3e
00000270: 8024 493c 6b89 fb3d ef5b 973e 2283 0abe
00000280: 888d 3e3c 0390 5b3e dbf0 a3be ac66 0bbe
00000290: fc81 36bd e0b6 a6bd c4bb 5cbe 54f3 843e
000002a0: e696 10bc 1759 c03d c042 603c 8ef1 9c3b
000002b0: b3b0 1c3c db66 48be 06e7 9ebe 5c5e f03c
000002c0: 7515 5ebe 6292 cd3d 7b4b 41be 892d d63d
000002d0: c37b 21be 7eeb cc3c 5510 e1bd fce8 783e
000002e0: 317f 21bd 10ae 6f3e 760e 51be 8b08 05bf
000002f0: b550 a3be a0de 183e a192 583d 1e74 103e
00000300: 64e3 33be 8456 71be 7033 573e 400e a2bc
00000310: ea2a 0d3e 5f76 cd3e 4122 febd 5e90 8cbe
00000320: 40c2 7ebd 0129 69bd 87d9 5f3e 8089 a03c
00000330: fcce 1c3d 9d4f 85bd d521 21be dc22 593e
00000340: 7f2d ae3e 83b0 18be 2b59 ebbd 9a30 163e
00000350: 09e1 5cbe 29bf 56be 7c3b 493e 10ad 2e3d
00000360: e479 16be f05a 5a3d 2257 dbbe e456 343e
00000370: b0e9 533d 92ae 253e da72 3e3e 5504 4a3e
00000380: ca09 6dbe ab50 733c c905 7abc 6862 abbd
00000390: 6184 eb3e 5077 06be 50c5 dfbd 2c80 5dbe
000003a0: 44e8 ff3d a0ad ea3d c4a2 0a3e c8e1 903d
000003b0: c54d d2bd 00dd f93d 97f6 923e 4448 d53b
000003c0: a8b0 b23d 1fbb 90bd 8574 80be 18fb 94bd
000003d0: e433 413e 8b27 28be 039d 253d 9097 583d
000003e0: 481f 923e c835 243e 87cb 673e 3598 2d3e
000003f0: a4f2 1f3e 74e7 56be 920a 303e f9af c0be

arith.constant3 f4 [3]
0.0531771 0.028383872 -0.0917789
00000000: 3bd0 593d 4b85 e83c 93f6 bbbd

arith.constant4 f4 [16]
0.16841072 -0.030288508 0.09234239 0.03945089 -0.05270079 0.14051615 0.029098213 0.0070619015
0.089834705 0.065517716 -0.0140476115 0.12504691 0.10509982 -0.062214144 0.011781865 0.028448224
00000000: dc73 2c3e 9b1f f8bc 021e bd3d 4297 213d
00000010: c9dc 57bd 77e3 0f3e 605f ee3c 8667 e73b
00000020: 42fb b73d 272e 863d f427 66bc 4c0c 003e
00000030: 933e d73d 42d4 7ebd b908 413c 400c e93c

sequential_1/dense_1_2/Add/ReadVariableOp f4 [32]
0.061795488 0.04116585 -0.049173187 0.019582085 0.0 0.0322786 0.013891869 -0.011523793
0.0 -0.02994292 0.0 0.0 0.034466814 0.01789829 0.093791045 -0.010694568
-0.042123307 0.0844389 0.0 -0.009372844 0.008641682 0.09844276 -0.03243217 0.13429415
0.10654362 -0.010176963 -0.08857758 -0.07205103 0.09944014 0.039285313 -0.03464756 0.10369638
00000000: 441d 7d3d 869d 283d d369 49bd 9c6a a03c
00000010: 0000 0000 9136 043d b99a 633c 4bce 3cbc
00000020: 0000 0000 db4a f5bc 0000 0000 0000 0000
00000030: 132d 0d3d 6f9f 923c 8515 c03d 4538 2fbc
00000040: 7d89 2cbd 4dee ac3d 0000 0000 8f90 19bc
00000050: d795 0d3c 5c9c c93d 98d7 04bd 6884 093e
00000060: 8b33 da3d 47bd 26bc 2a68 b5bd 7e8f 93bd
00000070: 46a7 cb3d a3e9 203d 9aea 0dbd c55e d43d

sequential_1/dense_1/Add/ReadVariableOp f4 [64]
-0.021241512 0.0106959315 0.0 0.0 0.048721466 -0.12775518 -0.044094894 0.1379432
-0.10034679 0.10940128 -0.002630493 0.11961752 -0.036474977 -0.06913514 -0.020111121 0.001742191
-0.060237344 0.07999789 -0.102670655 0.018934024 0.07390682 -0.09661036 0.026049685 0.0
-0.095658116 -0.005182343 0.11825513 -0.038427595 0.0 -0.065147534 -0.070736855 0.090545826
0.00049420545 -0.08705387 0.113232836 0.0 0.1500958 0.0 -0.010136482 -0.103283
0.025608746 -0.008641934 0.0 0.07831712 0.047909725 0.05406103 0.1491691 0.09092992
-0.009759146 -0.101946235 0.07947216 0.102992654 0.05902996 0.06115584 0.12205147 0.0
0.06812656 0.0 0.11707021 0.16728956 0.10421825 0.0 -0.06857697 0.04790501
00000000: ae02 aebc fd3d 2f3c 0000 0000 0000 0000
00000010: 2990 473d 41d2 02be d99c 34bd fb40 0d3e
00000020: 9e82 cdbd c70d e03d 5964 2cbb 08fa f43d
00000030: c966 15bd b996 8dbd 14c0 a4bc 3b5a e43a
00000040: 6fbb 76bd efd5 a33d fe44 d2bd 871b 9b3c
00000050: 755c 973d a7db c5bd 2666 d53c 0000 0000
00000060: 67e8 c3bd a5d0 a9bb bf2f f23d 4166 1dbd
00000070: 0000 0000 126c 85bd 7cde 90bd 1770 b93d
00000080: 918d 013a 4d49 b2bd 9ee6 e73d 0000 0000
00000090: b7b2 193e 0000 0000 7d13 26bc 0a86 d3bd
000000a0: 6fc9 d13c e696 0dbc 0000 0000 ba64 a03d
000000b0: fd3c 443d 196f 5d3d c9bf 183e 7739 ba3d
000000c0: d3e4 1fbc 30c9 d0bd 4dc2 a23d d0ed d23d
000000d0: 66c9 713d 8c7e 7a3d 1ff6 f93d 0000 0000
000000e0: f085 8b3d 0000 0000 82c2 ef3d f44d 2b3e
000000f0: 6170 d53d 0000 0000 1572 8cbd 0b38 443d

sequential_1/dense_1/MatMul f4 [64, 6]
0.053870894 -0.06906934 -0.07587347 -0.26617873 0.19919348 -0.20358719 -0.21269368 0.3171662
0.3645313 -0.08474177 0.28280526 0.30511826 0.09705147 -0.27509663 -0.2163147 0.06513131
0.07166615 -0.2909334 -0.15479152 -0.28087768 0.049765497 0.0720987 0.036498815 -0.17696756
0.033308234 -0.24396151 -0.4252045 0.050584834 0.032113757 0.14756869 -0.110272996 0.3170595
0.24677515 -0.0033211524 -0.027356358 -0.24175034 -0.12382519 0.3011564 -0.19395338 0.25082618
0.29254708 0.061362084 -0.0970759 -0.05951497 -0.21584839 -0.22673722 0.09672419 0.26231614
-0.19416735 0.17842275 0.33618557 0.10120187 -0.07219093 -0.2192487 -0.25592622 0.2503371
-0.23126268 -0.13048883 0.0101286685 0.29415563 -0.15234385 0.11473357 0.16779761 0.23358838
0.29799092 -0.008891132 -0.22171582 0.09747924 0.19278964 -0.3863431 -0.13999362 -0.038714617
-0.12130338 0.3291428 -0.23903683 0.2217955 -0.07419306 0.26612747 0.112405404 -0.019438649
-0.061707437 0.4375239 0.23092651 0.02652792 0.15803312 0.25456384 -0.00904128 0.4105494
0.17256796 0.0996337 -0.053449623 -0.008499258 0.04989191 0.49660707 0.25753883 -0.096340865
0.01640435 0.21972615 0.2791928 0.3847811 -0.15338114 -0.18410222 0.12532908 0.031432442
0.020315578 -0.28346157 -0.28412318 -0.046563283 -0.20182958 0.0901957 0.31792507 -0.37518027
-0.3053445 -0.06647701 -0.014193392 0.24223877 -0.19085006 -0.26628074 0.28879604 0.0048419177
0.20609948 -0.18611221 0.35646665 -0.036074672 -0.10974172 -0.11890349 -0.029306028 0.18598858
0.14579293 0.22312784 -0.10180094 0.27027044 0.11769394 0.20751064 0.24657093 -0.079574496
-0.089117385 -0.23112433 0.05652368 -0.18466872 0.18000945 -0.12626813 0.10682741 -0.2538082
0.16426876 0.18766463 0.27994683 0.31636104 -0.2811896 -0.09833039 -0.2698284 -0.1600573
-0.21991009 0.040356115 -0.046248794 -0.00087125954 0.15737587 -0.28344154 -0.16518553 0.063599944
-0.3286991 0.25742 -0.016232587 0.3358146 -0.26006207 0.3308704 -0.16214047 0.21585621
0.005005628 -0.19082776 0.08855057 -0.28192312 -0.010084271 -0.16330065 0.16466714 0.31318405
-0.08388502 0.08236425 0.25847033 0.012394277 -0.19523083 0.18324193 0.30143854 0.30813825
0.05469365 0.109826766 0.2487061 -0.2758929 0.30095503 -0.11726552 -0.117629856 -0.08815762
0.16820647 -0.16570885 0.13293274 -0.014010553 0.30028802 -0.050019655 -0.116640255 -0.053688373
0.19215815 0.46061978 0.07931153 0.12774295 -0.26979032 0.18690605 0.19227932 -0.42176446
-0.15167989 -0.027805472 0.015884042 -0.23093149 0.12369776 -0.005662799 -0.27279547 -0.24368113
-0.39752147 -0.03084505 0.1576982 0.33336174 -0.23277399 -0.25569764 -0.20988686 0.019592732
-0.23436281 -0.14845695 -0.1351033 -0.049495354 -0.24229068 -0.14165545 -0.06335473 -0.017771397
-0.15054646 0.009557018 -0.21655141 0.15470967 0.24233417 -0.22528552 -0.23009917 0.30190092
-0.28988484 -0.07727779 -0.295894 0.15796266 0.04246073 0.0947173 0.06524602 0.13670845
0.006951678 0.06722221 0.2374743 0.31817865 -0.08934975 -0.05502142 -0.15270816 -0.28645563
00000000: baa7 5c3d 3a74 8dbd 8d63 9bbd 9448 88be
00000010: 60f9 4b3e 2979 50be 5fcc 59be 9c63 a23e
00000020: d9a3 ba3e 188d adbd dacb 903e 7638 9c3e
00000030: ecc2 c63d 77d9 8cbe 9a81 5dbe 9063 853d
00000040: b4c5 923d 39f5 94be ab81 1ebe 33cf 8fbe
00000050: e8d6 4b3d 7ca8 933d c87f 153d fc36 35be
00000060: 376e 083d 0cd1 79be 67b4 d9be 0b32 4f3d
00000070: b789 033d 3f1c 173e cfd6 e1bd 9f55 a23e
00000080: a0b2 7c3e b1a7 59bb 711a e0bc 678d 77be
00000090: 1098 fdbd 2c31 9a3e b79b 46be 4a6c 803e
000000a0: bbc8 953e cf56 7b3d bbcf c6bd f8c5 73bd
000000b0: 5c07 5dbe cd2d 68be 5517 c63d 4d4e 863e
000000c0: ced3 46be 74b4 363e 8420 ac3e ed42 cf3d
000000d0: d7d8 93bd bb82 60be c308 83be 2f2c 803e
000000e0: 20d0 6cbe dd9e 05be b7f2 253c 919b 963e
000000f0: 0700 1cbe 6ff9 ea3d 23d3 2b3e cb31 6f3e
00000100: 4492 983e 1cac 11bc 7909 63be 32a3 c73d
00000110: a66a 453e c3ce c5be 7d5a 0fbe 3893 1ebd
00000120: e86d f8bd 6885 a83e 12c6 74be 5c1e 633e
00000130: 88f2 97bd dc41 883e ce34 e63d cd3d 9fbc
00000140: f0c0 7cbd 2203 e03e 0078 6c3e 1551 d93c
00000150: 6fd3 213e 3156 823e e021 14bc 8833 d23e
00000160: a8b5 303e c10c cc3d feed 5abd 7940 0bbc
00000170: 765b 4c3d 4843 fe3e 21dc 833e 5c4e c5bd
00000180: 6a62 863c e4ff 603e 5cf2 8e3e 0702 c53e
00000190: f20f 1dbe 4b85 3cbe 4456 003e 4ebf 003d
000001a0: db6c a63c e021 91be 9878 91be 24b9 3ebd
000001b0: 6aac 4ebe 86b8 b83d 13c7 a23e a117 c0be
000001c0: 1d56 9cbe 1925 88bd 678b 68bc 710d 783e
000001d0: 336e 43be f355 88be 13dd 933e f3a8 9e3b
000001e0: be0b 533e 3394 3ebe cc82 b63e 09c3 13bd
000001f0: 44c0 e0bd ac83 f3bd 3213 f0bc ca73 3e3e
00000200: be4a 153e a07b 643e 037d d0bd e360 8a3e
00000210: 8509 f13d ab7d 543e 177d 7c3e f4f7 a2bd
00000220: 2d83 b6bd dbab 6cbe 6085 673d cc19 3dbe
00000230: 6654 383e 6f4c 01be 54c8 da3d 26f3 81be
00000240: 1236 283e 282b 403e 3155 8f3e 13fa a13e
00000250: 15f8 8fbe 7261 c9bd f326 8abe 10e6 23be
00000260: 1c30 61be 744c 253d 606f 3dbd 3d65 64ba
00000270: 2427 213e 401f 91be 6526 29be b040 823d
00000280: 404b a8be 8ecc 833e 34fa 84bc e4ef ab3e
00000290: db26 85be d867 a93e 2708 26be 6909 5d3e
000002a0: 4006 a43b 5a68 43be 005a b53d 3a58 90be
000002b0: 8038 25bc 4938 27be 819e 283e a959 a03e
000002c0: e9cb abbd 97ae a83d 3956 843e 5e11 4b3c
000002d0: 97ea 47be c6a3 3b3e 2756 9a3e 4cc4 9d3e
000002e0: 7306 603d dbec e03d d0ac 7e3e d641 8dbe
000002f0: c716 9a3e e828 f0bd ece7 f0bd fb8b b4bd
00000300: 513e 2c3e 95af 29be 851f 083e 858c 65bc
00000310: 5abf 993e 69e1 4cbd 16e1 eebd 57e8 5bbd
00000320: 1bc5 443e 5bd6 eb3e 156e a23d 0ccf 023e
00000330: f521 8abe 4d64 3f3e dfe4 443e 83f1 d7be
00000340: f951 1bbe 4dc8 e3bc 401f 823c 4e79 6cbe
00000350: 4055 fd3d 008f b9bb d9ab 8bbe 8c87 79be
00000360: ef87 cbbe c2ae fcbc a37b 213e 64ae aa3e
00000370: 4e5c 6ebe cdea 82be 95ec 56be f080 a03c
00000380: cefc 6fbe 1905 18be 8558 0abe a4bb 4abd
00000390: 0c1b 78be 200e 11be 20c0 81bd 5295 91bc
000003a0: da28 1abe 0a95 1c3c a7bf 5dbe 366c 1e3e
000003b0: 7326 783e 3fb1 66be 1e9f 6bbe c292 9a3e
000003c0: c96b 94be d143 9ebd 6b7f 97be f7c0 213e
000003d0: 4deb 2d3d 25fb c13d b59f 853d 4dfd 0b3e
000003e0: e7ca e33b ccab 893d 772c 733e 50e8 a23e
000003f0: 00fd b6bd 245e 61bd 875f 1cbe 50aa 92be
