app/src/main/ml/model_2.tflite (tflite, 50068 bytes, 10 tensors)

arith.constant f4 [3, 16]
00000000: 2957 f23e 42e5 25bf 9159 bfbe dd43 00bf
00000010: c1ff e6bd 9872 1fbc 9432 f6ba f060 063f
00000020: ee5d 2a3e 6667 b5bd 381b 2dbe f1f4 c8be
00000030: 6c53 c9be c12e c6be c525 1dbf 7029 a53e
00000040: eb02 9c3e 353f edbe 6231 b2be f1ac 423d
00000050: 3b68 b1be 2735 babe c090 67be dd55 d93e
00000060: 062f 94be 4a49 3c3e ae88 c1bc 77cc fa3e
00000070: bff5 d13e 05f7 d83e 796f a3be fa6e a63e
00000080: 4169 51bf 6c38 7c3e 8529 f13d ebaa 37bb
00000090: a913 37bf dacf c43d 9942 cdbd 5931 22bf
000000a0: 30a5 f73b 110c 013f d541 1b3e c71b a93e
000000b0: 03ae a6be 694f b23e f8a7 bebe 63bc d93e
0.47332123 -0.64802945 -0.3737302 -0.5010355 -0.1127925 -0.009731911 -0.0018783384 0.52491665
0.16637394 -0.08857612 -0.16904914 -0.39249375 -0.39321458 -0.38707545 -0.61385757 0.32258177
0.30470976 -0.46337286 -0.348033 0.04752821 -0.34649834 -0.36368677 -0.22613811 0.4244832
-0.28942126 0.18387333 -0.023624744 0.4898412 0.41007802 0.4237596 -0.31920984 0.32506543
-0.8180123 0.24630898 0.11775497 -0.002802546 -0.71514374 0.09609957 -0.10022468 -0.6335655
0.0075575337 0.50409037 0.15161832 0.33029005 -0.32554635 0.3482621 -0.37237525 0.4252654

arith.constant1 f4 [16, 32]
00000000: c234 d5bd b126 84be 2b6a 57bd 3d4e 463e
00000010: adc8 953e 6513 ecbc 34c3 67be f095 1cbe
00000020: 60a3 a53e 5c76 903e 988f 51be 4c7a a4be
00000030: 968d 4b3e be47 14be 7b48 e93e a5f5 edbd
00000040: e2d2 d53e e704 1a3e 0bd1 d0be d59c 673e
00000050: a0b7 24be d6e7 bc3d 264d 29be f899 7abe
00000060: ab99 99bd 1ba0 af3e d024 b93e a741 a6bc
00000070: 78cd 063d 9b50 7abe 088e 963e 7729 ed3d
00000080: 8fab 80be 82d6 d33d c7ae fa3e d223 3bbe
00000090: b801 0cbe 8d7a 763e ec55 793e 6854 2a3e
000000a0: 50fc 95be 9ee5 c8bd 1ccb 1e3e 4339 e6bb
000000b0: 2cc3 0dbd 1b80 2ebe e605 39be ca83 7dbe
000000c0: a46a ff3d 8089 3fbe 7370 013e 8502 6fbd
000000d0: 06ec 0d3d 1042 7f3e 49ec 983d d962 a73d
000000e0: 1551 d53d 94c7 ccbd e0a5 973e faec 16be
000000f0: 7abe a43c 251f 4dbd 32b0 99be 1c98 44be
00000100: abf6 8f3e 7e7e 963e cac7 8fbe 5b23 62bd
00000110: cc1d 913e 422e 83be e63f c8be 8577 8e3e
00000120: 656c 503e 7531 a9be 6607 903d 5cd7 8d3e
00000130: 76e1 2dbe ae67 d03c 85f2 c2bd 2afa e8bd
00000140: f73e 5bbe 6284 8fbe 753e 933c 82aa a4be
00000150: 3830 e73d d669 bbbd 63a5 be3d 5af1 97be
00000160: 6d49 743e 813a 52be 19aa 183e edff 683e
00000170: de76 3b3e 1d88 c53d 1fca 433b 606f 803d
00000180: 16e2 933e 9d63 9cbd 6e30 ddbd 9615 76bd
00000190: b56c 10bc fc0c acbe 60ce 453d 853a 12bb
000001a0: c82e 9ebe 6d7f 89be b096 8cbc a257 e1bd
000001b0: 765b 82be f1fc 093e 5898 07bd 9c09 763e
000001c0: fcda 39bc 6c82 8b3e c094 bf3e 131e e83d
000001d0: f587 f8bd 54d7 a7be 91fb 9dbd 427c 913e
000001e0: e3ea aebe 2503 143d 0bf0 42be 0122 1d3e
000001f0: a580 ebbd cfc2 2ebe 9b25 22be 0e93 c8bc
00000200: b815 79be c145 a8be 9625 3a3e 16fb a6be
00000210: 98de d43d 66a2 b2bd c78b 57be ffd6 413d
00000220: 7c2f 2ebd 4ef1 513e b0cf 66be 69d3 2ebe
00000230: 5f90 5e3e 01db 953d 3a7b 75be 0dd2 363d
00000240: 1cd3 80bd 8cc0 643e 23ac 6c3d 096c d93e
00000250: e5c7 54be aa56 9cbe 5a6f 51be e270 9cbe
00000260: 4b74 55be f484 3e3e 239d 4f3d 6542 fdbc
00000270: 3d3a d93e 8fc9 adbe 5077 a83e 0c4c 4c3e
00000280: d78d 553e 20fa 8a3e 54d2 8c3e 8fb2 8e3e
00000290: 5816 65bd 50e3 503d aa96 ecbc 56cd 7fbd
000002a0: 18eb a9bd 3c17 96bd 9936 cdbe c25a c13d
000002b0: b586 18bd d2c6 723e 8419 82be eb54 d2bd
000002c0: 614e 90be ebb8 b2be 9551 27be c74d 95bd
000002d0: 460a c1bd 1bd5 813e a05b 433e 5332 c13d
000002e0: 369a 85be cf36 9dbe f1bc cebd 99c2 6bbd
000002f0: 9ec3 893d e2e5 a03e 7eb5 c3bd 0e97 893e
00000300: a8c2 5cbe 4c98 85be 5f27 c73e 185f afbd
00000310: f08e c73c 9d03 e3be f05c 6a3d f6b4 ec3e
00000320: 6d26 d53d 465a 9fbd 277b 5a3b 0060 cb3d
00000330: e91f cc3e 75ce 14be c070 b0be 1405 5bbe
00000340: 093c bb3e 9d37 55be 8f25 b53e 13c0 05be
00000350: ddde 89be ebda 3e3d 3e17 59be ded8 9e3d
00000360: 6426 0f3d 861b 73bd b9be 91be 8a4a cd3d
00000370: 1428 62be 5c1a a03d 91ab ccbc beb0 7bbe
00000380: 7635 203c 902c c1be 4e03 df3d ed35 cc3e
00000390: 5119 1ebe d10a e2bd c31f cdbd 8b44 c1bb
000003a0: 41c2 7ebe 236a ca3e ea80 57bd d6c6 bebe
000003b0: 725b b73e 3918 b2be ceb3 3d3d 397b c2be
000003c0: bd9e 643e 9b4c 893c d863 b0be 2dc4 1fbc
000003d0: a82b 9cbe 5aa1 783e 29e8 3cbe e228 b8bd
000003e0: b023 15be 3aee 803e a90b 81bb 4a22 b83e
000003f0: 25fc e93e 7cb5 133d 2240 01bd 3a7f 643e
-0.104104534 -0.2581077 -0.052591484 0.19365783 0.29254666 -0.028817842 -0.22633058 -0.15291572
0.32351208 0.282153 -0.20464933 -0.32124555 0.1987823 -0.14480492 0.4556311 -0.116191186
0.41762453 0.15040933 -0.40784487 0.2261842 -0.16085672 0.09223907 -0.16533336 -0.24472797
-0.07500013 0.34301838 0.36160898 -0.020294977 0.032910794 -0.24444811 0.29405236 0.115801744
-0.2513089 0.103436485 0.4896147 -0.18275383 -0.1367253 0.24070187 0.24349183 0.16633761
-0.29294062 -0.09809421 0.15507168 -0.007025869 -0.03460996 -0.17041056 -0.18068656 -0.24757305
0.12471512 -0.18704796 0.12640552 -0.058352012 0.034648918 0.24927545 0.07466943 0.081731506
0.10415856 -0.09999004 0.2961874 -0.14738837 0.020110358 -0.05007853 -0.3001724 -0.1919865
0.2811788 0.2939338 -0.28082114 -0.0552095 0.28343046 -0.2562123 -0.3911125 0.2782556
0.20353849 -0.33045545 0.07032661 0.2770337 -0.16980538 0.025440063 -0.09518913 -0.1137584
-0.21410738 -0.28030688 0.017974118 -0.32161337 0.11288494 -0.09151046 0.09308889 -0.29676324
0.23856135 -0.2053013 0.14908637 0.22753878 0.18307063 0.09645102 0.0029875112 0.06271243
0.28883427 -0.07636187 -0.10800253 -0.06007918 -0.00881498 -0.33603656 0.048292518 -0.0022312712
-0.30895066 -0.2685503 -0.017161697 -0.11003043 -0.25460404 0.13475396 -0.03310427 0.24027103
-0.011343714 0.27247941 0.37418175 0.11333861 -0.12135307 -0.3278147 -0.07713998 0.28415114
-0.3416358 0.03613581 -0.19036882 0.15345003 -0.11499146 -0.17066501 -0.15834658 -0.024484184
-0.24324691 -0.32865718 0.181784 -0.32613438 0.10394019 -0.08722381 -0.21049415 0.047324177
-0.042525753 0.20502207 -0.22540164 -0.17072834 0.2173476 0.07317162 -0.23972788 0.044633914
-0.06290266 0.22339076 0.05778135 0.42465237 -0.20779379 -0.3053487 -0.20452634 -0.30554873
-0.20845143 0.18605405 0.050686967 -0.030915448 0.42427245 -0.3394284 0.32903528 0.19950885
0.20854889 0.27143955 0.27504218 0.27870604 -0.05592951 0.050998032 -0.028880436 -0.062451683
-0.08296794 -0.0732865 -0.40080717 0.09441139 -0.03723784 0.23708656 -0.25410092 -0.10270103
-0.28184798 -0.34906706 -0.16339715 -0.072902255 -0.09425788 0.253579 0.19077921 0.09433427
-0.26094216 -0.30705878 -0.100946315 -0.05755863 0.06726764 0.31425387 -0.09556101 0.26873058
-0.2155863 -0.26092756 0.38897225 -0.085630596 0.02436015 -0.44338694 0.05721754 0.46231812
0.1040772 -0.0778089 0.0033337565 0.0993042 0.39868096 -0.14531882 -0.3446102 -0.21388656
0.3656924 -0.20821996 0.35380217 -0.13061552 -0.26927844 0.046595495 -0.21200272 0.07756208
0.03494872 -0.05935242 -0.28465822 0.10023983 -0.22085601 0.07817528 -0.024984153 -0.2457914
0.009778371 -0.3772931 0.10889302 0.39884892 -0.15439345 -0.11037219 -0.10015824 -0.0058980635
-0.2487879 0.395341 -0.052613176 -0.37261075 0.35811955 -0.34784105 0.046314053 -0.37984636
0.22326179 0.016760161 -0.34451175 -0.009751362 -0.30502057 0.242803 -0.18447937 -0.08992173
-0.14564395 0.25181752 -0.0039381576 0.3596366 0.45700184 0.03606175 -0.031555302 0.22314158

arith.constant2 f4 [32, 64]
00000000: 59e1 3d3e 7aea bfbd 681a 58be 0549 993e
00000010: b054 0c3d 04f7 013e c5d2 b2bd aaa1 493e
00000020: d915 943c ca54 56bb f71c 50be 18f7 11be
00000030: e565 0dbb ea7d 3fbe cbb9 133e 25c7 0fbe
00000040: e49f 223e cef0 4fbc f118 133e fcc8 c63d
00000050: 789e a03c ddc9 48be c03f fdbd bf41 c03c
00000060: f20b c43d 3299 35be ffcb 60be 76ff af3d
00000070: 5d50 513c 7226 37be 6097 9e3d c3eb 343e
00000080: 113c 783e 6c6d 26be ca00 d5bd 76bd 273e
00000090: 2705 93bd 8ffa 113e 0131 003d 07e5 38be
000000a0: 2be5 fdbd f2b6 823b b595 d0bc 9274 b13d
000000b0: 4be7 3abc 7bb1 abbd a78e 263e 4e62 80be
000000c0: 141c e63d 4c2e 20be 9b72 00be 7da2 d53b
000000d0: df13 86be 4929 70be 8ae3 e23d 57eb 10be
000000e0: 5377 40bd 3e22 42be 1cfa 303d 14be 7a3e
000000f0: c2c7 0fbe 50cf 8dbd 05fb 3b3d 5086 913c
00000100: adbe 7dbd a6c6 1ebd 0ee4 01be 2281 c13d
00000110: 9fc1 da3d c593 b83d be89 06be 9621 df3d
00000120: 1d54 8f3e 3264 2d3e df5a a2be 5c54 1ebe
00000130: 00a1 a4bd 5c5b 83bd eea7 0fbe 606d 413d
00000140: 0dc1 68be 870b 643c 8e84 b3bc e58c 33be
00000150: e9dd 9abd f31b 8d3e 3ff6 e5bd 29a0 663e
00000160: 0590 c83c ef94 893d 3a05 e83d dfbf 0f3e
00000170: 004c 5abe 524e 533e 13c1 4dbe ca7b 3bbd
00000180: ae86 a4bc a324 9b3e 470c 523d e459 f3bc
00000190: 3c62 b3bc f2dc aa3d 9da3 1a3e c575 5fbe
000001a0: 07af bdbd 60e7 81be 06c8 0ebe e47b dbbc
000001b0: 46cb 3dbe 58e7 0dbe 7dee e53d 1abd af3d
000001c0: 7555 e8bd aa70 a0be 5a15 0f3e 1598 c1bc
000001d0: 8748 473e d4e7 dabd ab0b afbd 9f24 083e
000001e0: 12a2 803e 23a8 133e 9e0f 99bd 8eb1 51bd
000001f0: ceaf e0bd feff 26be 9158 11bd c63b 28be
00000200: 0e7d 12be 7ae1 603e e54a 4cbe 7cf0 d63d
00000210: c7d5 a5bd b211 e03b d9a9 1dbd 232c cd3e
00000220: 3d25 433e 6c5d 093b d915 a3be 832b f83c
00000230: 4d05 47be 5249 20bd ff8a 76ba 1cc0 1bbe
00000240: 800b 04be fae3 953e 916a 43be d8a3 28be
00000250: ad32 6abe c909 8a3e 35a0 29be 36b9 a23e
00000260: e716 87bd 4233 e5bc ee5d 98bc 6cf9 82be
00000270: d40d 023d 27f8 d7bb 058a 78be 1def a8bd
00000280: c2d6 ebbb f49b ab3e 0b0e c1bd db30 52bd
00000290: b7f4 433d 8abe a03d 9b6a a73d 656c 8cbe
000002a0: 8c9f 113d 070d efbd eb3a eabd 01c9 743e
000002b0: acde 1bbe 0e62 583c 2529 21bb f9ba 373e
000002c0: 5d5a 103e d75f 78bd ee15 5cbe 7111 c73d
000002d0: aafe 0b3e 1f77 133e e029 7b3e 0d00 203d
000002e0: 9339 8f3e 5477 50bd 9fbb 663e 030d bbbc
000002f0: 9cfd 583e 844e e9bd 10a1 7f3d 0c9c 833e
00000300: 4b7f 33be 8ed2 4b3e ce7d 063e 6a54 2cbe
00000310: 843d 36be 679b 45bc c9b2 d3bd b89c 1dbe
00000320: 41f7 2838 5eda 453c 56db ac3d 0120 89bd
00000330: f223 363e 85ff 3d3e cb3f 8c3c 2878 2f3e
00000340: 8e7f a7be 51e2 63bd fcf5 2abe eaa5 183d
00000350: 8291 dabd 7d72 ff3c ea1f 673e d55f 8f3d
00000360: 816c 33bd 36a0 adbd 4931 683d 963c 223d
00000370: 393b 74bd 1326 8dbe aa5b 52bd f903 d73c
00000380: f4ef 92be 476c 92bd b1f1 953e 4939 0e3d
00000390: 7061 d83c 8759 6fbd bb19 5bbd ac79 7e3e
000003a0: 4854 663e 0d84 97bd 8d2f 15be d361 8cbe
000003b0: 1821 7b3e 1e85 343e f538 153d a585 11bd
000003c0: 6709 8d3e f510 bb3d 85b4 35be 6adb de3d
000003d0: fb98 863e f085 5f3e 33ac 803e 8a99 3ebe
000003e0: 1037 d2bc 5c08 2b3e 7830 0c3e c987 b5bc
000003f0: e5e3 2ebd cede 32bd 14b3 b3bc 62e0 38be
0.18542995 -0.09370895 -0.21103823 0.29938522 0.03426045 0.12691885 -0.08731607 0.19690576
0.018076824 -0.0032704347 -0.20323549 -0.14254415 -0.0021575626 -0.18700376 0.14426343 -0.14040811
0.15881306 -0.01269169 0.14364983 0.097063035 0.019606814 -0.19608255 -0.12365675 0.02346885
0.09572591 -0.1773422 -0.21952818 0.08593647 0.012775508 -0.1788576 0.07743716 0.17668061
0.24241664 -0.16252679 -0.10400541 0.16380867 -0.07178717 0.14255737 0.031296734 -0.18056117
-0.12397226 0.003989094 -0.02546201 0.08664812 -0.011407684 -0.08383461 0.16265355 -0.25075
0.11235824 -0.15642661 -0.12543719 0.0065196143 -0.26187035 -0.23453249 0.11078556 -0.14152275
-0.046988796 -0.18958375 0.043207273 0.24486572 -0.14041045 -0.06924307 0.045893688 0.01776424
-0.06194942 -0.038763665 -0.12684652 0.09448458 0.106814615 0.0901256 -0.13138482 0.10895078
0.2799386 0.16932753 -0.31709954 -0.15461868 -0.08038521 -0.0641391 -0.14028904 0.04722345
-0.22729893 0.013918764 -0.021913793 -0.17534216 -0.07561857 0.27560386 -0.11228608 0.22522034
0.024482736 0.0671786 0.11329122 0.14038037 -0.21318054 0.20635346 -0.20093183 -0.04577235
-0.020083752 0.3030139 0.05128124 -0.02970595 -0.021897428 0.08342923 0.15101476 -0.2182227
-0.092618994 -0.25371838 -0.1394349 -0.026792474 -0.18534574 -0.13857782 0.11227129 0.0858099
-0.11344425 -0.31335956 0.13972989 -0.023632089 0.1946126 -0.10688749 -0.08547147 0.1329522
0.2512365 0.14419608 -0.07473682 -0.05119472 -0.10971032 -0.16308591 -0.035484854 -0.16429052
-0.14305517 0.21961012 -0.19950445 0.104950875 -0.080974154 0.006838047 -0.038492057 0.40072736
0.19057174 0.0020960225 -0.31852606 0.030294186 -0.19435616 -0.039132424 -0.00094048673 -0.15210003
-0.12895012 0.29275495 -0.1908362 -0.16468751 -0.22870894 0.2696059 -0.1656502 0.3178193
-0.06596165 -0.027978543 -0.018599477 -0.2558092 0.03175147 -0.0065908614 -0.242714 -0.08248732
-0.007197232 0.3351742 -0.094265066 -0.051316123 0.0478408 0.078488424 0.0817463 -0.27426448
0.035552546 -0.11672407 -0.11437019 0.23904802 -0.15221661 0.013206972 -0.0024591174 0.17942418
0.14096971 -0.060638275 -0.2149274 0.097201236 0.13671365 0.1440091 0.24527693 0.03906255
0.27973613 -0.05089505 0.2253251 -0.022833353 0.21190494 -0.11391929 0.06240946 0.25704992
-0.17529027 0.19904539 0.13133928 -0.16829076 -0.17796904 -0.012060977 -0.10336835 -0.15391815
4.0284594e-05 0.012075989 0.084402725 -0.066955574 0.1778715 0.18554504 0.017120263 0.1713568
-0.32714504 -0.055635754 -0.16695398 0.037267603 -0.10672285 0.031182522 0.22570768 0.070007004
-0.04380465 -0.084778234 0.056687627 0.03960856 -0.05962679 -0.2756811 -0.05135695 0.026247011
-0.28698695 -0.071495585 0.29285958 0.0347226 0.02641365 -0.05843499 -0.053491335 0.24851102
0.22493088 -0.073982336 -0.1456892 -0.27418384 0.24524343 0.17628905 0.03643127 -0.035527844
0.27546236 0.09134094 -0.17744644 0.10881694 0.2628859 0.21828437 0.25131378 -0.18613258
-0.025661021 0.16702408 0.13690364 -0.022159474 -0.042697806 -0.043669514 -0.021935977 -0.18054345

arith.constant3 f4 [64, 128]
00000000: 5c0c 1c3e 9287 aebd e2fb 1abc b0e2 5fbe
00000010: 960a 5abd 153d 19be 21d2 d2bd d4b3 d7bc
00000020: 2657 243e 30e0 e6bd 7d4d 5cbe f230 b23c
00000030: 7ac2 0e3d a835 d73d cb08 d2bd 9918 51bd
00000040: 608a b8bd bd96 9d3d bdc7 c63c 537f 993d
00000050: 2f74 8c3d e1b9 c3bd 819c b03b b93d 33be
00000060: 71db ff3c 461e f63c 735d 0fbe 9754 af3e
00000070: 97e8 84bd 15c4 253e d1ec c8bd 144f 8c3c
00000080: 1b4a 123e 7cfd eb3d 7aa8 e2bc c345 e5bd
00000090: eeeb 0b3e c7fa f43d cfdb 77bd 47b9 af3d
000000a0: bc62 e7bc 7716 b33d 5a9d df3a 499f 173d
000000b0: 0a22 473e aecc e13d c90f 36bc 80e8 d23d
000000c0: 7cb7 7e3d ea41 d0bb ee14 7d3e 314e f73d
000000d0: c091 813d aae3 033e 381a c0bd c3d8 8d3d
000000e0: 3d6f 343c 41bc 013e 3da3 913d 2b48 593d
000000f0: b5ad b0bc cdab 953d 8210 9abd 9764 683d
00000100: fe07 90bd 008d a63c d69f d4bd d5ef 243e
00000110: 3f10 fbbd e18c 503d c04a 3b3e 04af 483d
00000120: 9cc6 90bd 58c5 7c3e 827b a0bd d91a 7abc
00000130: 9d12 f4bd 79fa 92bd 6e2b 18be 5bda 6e3e
00000140: 8da7 c9bd 2aa9 293e 4751 7b3d 3cbb a0bd
00000150: a57e f3bd 2012 b2bd b5a0 0c3e db27 1b3e
00000160: ece3 533d 8282 d63c 52e3 aa3d bd3b bebd
00000170: 4520 e73c d7cf c4bc 597b 89bd 1feb 01be
00000180: 4573 0b3e b904 26bd 9444 a5bc 1fc7 86bd
00000190: a412 513d 16d5 e8bc bfa1 a83d c4d4 d03b
000001a0: 7189 d3bd ba95 ff3b 0d4d 1dbd 5ce1 04be
000001b0: c2e7 103d b46f b8ba 0a35 bc3c aa35 21be
000001c0: c9ef 04be 4f8f 5f3d e600 793b ecf5 56bd
000001d0: 4db1 fcbd 8a95 6f3e 0f27 b83d de41 42be
000001e0: dc90 78bd 6440 ef3d b0e7 e5bc 95f0 4f3d
000001f0: 7e69 2dbd 72b1 8cbd cc75 c6bc 2bf8 333d
00000200: 8625 36be 8eef d8bd dd03 a8bd d7a1 a1bd
00000210: e2e6 9ebd 7a77 d7bc 6abd 873d 36b9 663d
00000220: 995b 66be 5719 c0bc 7a0f 6cbe b875 483d
00000230: 4b16 103e 3218 943d 703d 063e e2da 68be
00000240: de8e 823b bf4a 31be d836 163e 952f f23d
00000250: d03e 25be d513 c5bd 83d9 903d d938 b33c
00000260: e021 08be f51e d7bd aa8e 26bd b9bb 8abd
00000270: 282c 17be 1906 c9bd 4264 2d3e 52ad debd
00000280: d5fb b03d 0b1c 7e3c 99f2 0abc 9164 ebbd
00000290: cc1a 70be 06b5 803c ea21 7e3b eb44 753d
000002a0: 60c7 42bc c91b 0cbe b5e1 93bd d265 ecbd
000002b0: ac09 32be 0779 0abe a34d 973d 216d 24bd
000002c0: 5927 873d 22d4 1bbd aadc dd3d ed9d 0dbe
000002d0: 7fc5 fcbc aeb4 6ebd 1937 333d 848e f7bd
000002e0: 1272 8cbe 2361 0fbe 3284 0ebb 2a46 2fbe
000002f0: 29b1 ecbd 4683 81bd ff3c 14be 2711 ecbd
00000300: 7c1e 37bc 2d8b 0fbe 1850 b1bd e019 cb3d
00000310: f344 45bc dd59 95bd 7a2c 44be 39ca 78ba
00000320: 4c0a 893d 5c23 86be 97ad ca3d f7e8 bc3c
00000330: bfdb ccbd e5cf ce3d 8a50 ebbc 2102 023e
00000340: afa4 343e c374 f53d 85a6 3cbd c3fd a9bd
00000350: 52a5 0dbe 37c6 a53d 8a35 ebbd 1bf2 593d
00000360: e948 62bd 4dc9 23be 53eb 36be b01a 1abe
00000370: 32e5 a0bd ce86 edbd b955 1e3d 40f2 13bd
00000380: 990b 373d b499 343e 2394 403d e727 73bd
00000390: f4b1 aebd 0b2c 2fbe 2501 5b3e 998f 803c
000003a0: 133e 68bd 4503 d9bd c12a 13be 411a e73d
000003b0: 525b a8bc ee89 55be 58d6 fcbc 85f8 e23d
000003c0: aeff dfbd 7fdc 90bd 01ac e1ba b8f8 483e
000003d0: 6134 923c b709 503d ff29 c6bd ad70 093e
000003e0: 09d3 d7bb 8333 3f3e ec9b 48be 93a0 4b3e
000003f0: e627 3e3e 8889 1cbc 16b8 3fbe 75b5 2cbc
0.1523909 -0.08521952 -0.009459468 -0.21863818 -0.05323275 -0.14964707 -0.10293985 -0.026330866
0.1604887 -0.11273229 -0.21513934 0.021751855 0.034853436 0.10508281 -0.102555834 -0.05104885
-0.09010768 0.07694767 0.024265165 0.07494988 0.06858098 -0.09556938 0.0053897505 -0.17504014
0.031232568 0.030043732 -0.14000492 0.34244224 -0.064896755 0.1618808 -0.09810794 0.017127551
0.14286081 0.11522958 -0.027668227 -0.111949466 0.13664219 0.119618945 -0.06051236 0.08580261
-0.028245322 0.08744519 0.0017060444 0.03701714 0.19446579 0.11025368 -0.011112162 0.10298252
0.062186703 -0.006355514 0.24715015 0.12075461 0.06326628 0.12879816 -0.09380001 0.0692611
0.011012849 0.1266947 0.07111213 0.05304734 -0.021567205 0.07308159 -0.0752268 0.056736555
-0.070327744 0.020330906 -0.10382049 0.16107114 -0.12258958 0.050915603 0.18290234 0.048995033
-0.07069132 0.24684656 -0.07836057 -0.01526519 -0.11917613 -0.0717668 -0.14860317 0.23325484
-0.09846411 0.16568437 0.06135681 -0.07848212 -0.1188939 -0.08694863 0.1373318 0.15151922
0.051731035 0.026185278 0.08344139 -0.09288738 0.02821363 -0.024024887 -0.0671298 -0.12687348
0.1361819 -0.040531848 -0.020174302 -0.06580948 0.051043168 -0.02842192 0.082339756 0.00637302
-0.10328949 0.007799831 -0.03840356 -0.12976593 0.03537727 -0.0014071376 0.02297451 -0.15743127
-0.12982096 0.05458003 0.003799492 -0.052480623 -0.12338505 0.23396888 0.08991825 -0.18970439
-0.060685024 0.116822034 -0.028064579 0.050766546 -0.042336933 -0.068697825 -0.024226092 0.043937843
-0.17787752 -0.105925664 -0.08203862 -0.078921966 -0.07758881 -0.026302088 0.06627925 0.056328975
-0.22495879 -0.023449583 -0.23052779 0.04894039 0.14071004 0.072311774 0.13109374 -0.22739747
0.0039843163 -0.1731367 0.14669359 0.11825482 -0.16137242 -0.09622923 0.07072737 0.021877693
-0.13294172 -0.105039515 -0.0406634 -0.067740865 -0.14762938 -0.09815616 0.16932777 -0.10872902
0.08641783 0.015509616 -0.008480691 -0.11493791 -0.23447722 0.015711319 0.0038777539 0.05988018
-0.011888355 -0.13682474 -0.072207846 -0.11542858 -0.17386502 -0.13522731 0.07387855 -0.040143136
0.06599302 -0.038044102 0.10833104 -0.13829775 -0.030855892 -0.05827778 0.043753717 -0.120877296
-0.2743078 -0.14001898 -0.0021746275 -0.17116609 -0.11557228 -0.063238665 -0.14476393 -0.11526709
-0.011176702 -0.14017935 -0.08657855 0.09917045 -0.012040365 -0.07292531 -0.19157591 -0.0009490583
0.06691417 -0.26198852 0.09896391 0.023060305 -0.10002851 0.100982465 -0.028724927 0.12696125
0.17640947 0.11985161 -0.046057243 -0.08300354 -0.13832596 0.08094447 -0.11484821 0.053209405
-0.055245314 -0.15994759 -0.17863207 -0.15049243 -0.078562155 -0.115979776 0.03865597 -0.0361197
0.044688795 0.17636758 0.047016274 -0.059364226 -0.085300356 -0.17106645 0.21387155 0.015693473
-0.056699824 -0.10596327 -0.14371778 0.112843044 -0.020551357 -0.20853397 -0.030863926 0.110825576
-0.10937439 -0.07073306 -0.0017217399 0.19626129 0.017847242 0.050790515 -0.09675979 0.13421889
-0.0065864366 0.18671994 -0.1959073 0.19885473 0.18569908 -0.009554274 -0.18722567 -0.01054131

arith.constant4 f4 [3]
00000000: 75be 2b3e 3b27 f1bd 40ed 17bd
0.16771872 -0.11775061 -0.037091494

arith.constant5 f4 [16]
00000000: 1cc7 a93e a378 073e d49c e43d 8960 cdbd
00000010: 1f58 843e 398a 7d3c b553 373e 4331 863e
00000020: 58de acba bb43 143e 9a5b 95bc c187 443e
00000030: 5e0f 17bd 74b3 773e 9a72 acbe 03a6 92ba
0.3315972 0.13229613 0.11162725 -0.10028178 0.2584848 0.015474849 0.17903025 0.2620946
-0.0013188822 0.14478962 -0.018232156 0.19192411 -0.03687989 0.2418955 -0.33681184 -0.0011188391

arith.constant6 f4 [32]
00000000: bd49 5c3d 116c 2a3d a5a7 413d 151f 28bd
00000010: 7c4e 90bb 83d8 cd3d 1e35 be3b 4262 383d
00000020: bb19 553d ca81 3e3d 3fa2 92bd e60c 5f3d
00000030: 2815 c4bc 93c6 9abb 731c d03c f610 6e3d
00000040: 08e7 7dbc 7cda 133d c196 21bd bdf9 463d
00000050: 290e b4bb ecde c83d 5a19 32bb 4bc9 3bbc
00000060: 022f 1c3d 3fbb 833c 72e2 b33d 8dde d3bc
00000070: 2434 c83d 8b87 b9bd 882e 6ebc fe18 f13c
0.05378126 0.041606966 0.04727902 -0.041045267 -0.0044038873 0.10051062 0.005804672 0.04501558
0.05202649 0.046510495 -0.07159852 0.05445566 -0.02393587 -0.004723379 0.02540419 0.058121644
-0.015496977 0.036097035 -0.03945041 0.048578013 -0.005494852 0.09808144 -0.0027175755 -0.011461566
0.038130768 0.016080497 0.087834254 -0.025862956 0.0977557 -0.09059056 -0.014537461 0.029430863

sequential_1/dense_1_2/Add/ReadVariableOp f4 [64]
00000000: 68e3 663d 0689 4bbc 7db2 52bd 93c9 babc
00000010: 7705 2a3c dec9 64bc 9051 27bc cb86 c6bd
00000020: b9ce 0ebd acd0 afbd 4b0e 1dbc 1afb 173d
00000030: 3d55 82bc 9736 a1bd f49c b4bc e218 7a3b
00000040: 83b3 a33d 621d 4b3d 82a7 593c e78b 47bd
00000050: 5bbd cc3d cf39 42bd 2a28 68bb a9aa a5bd
00000060: 6fdc b1bd 9be6 c3bc 3a2b 07bd 8733 5abc
00000070: d836 d0ba 21f9 2bbc c0f2 563c bd11 03bd
00000080: 43d7 e73c f52b 8f3b 692e 12bd f501 d63c
00000090: 5d67 6e3d 0ef0 e4bd 3319 1fbc 1868 1e3d
000000a0: 5d68 1dbd 0c53 8e3c a03f 6cbb 13c1 843d
000000b0: b410 5cbc fea2 53bc 3deb be3d 885c 36bd
000000c0: ad71 1b3d 408b 1abb a3ec e33c 8e7b b93c
000000d0: f4ac 7cbc 3a9d 17bd 71d3 dfbd 2e7d 83bc
000000e0: c74b 52bd 7d41 92bc 7405 013c 79d5 9f3a
000000f0: 3ce8 09bb 63e1 aa3c 79cd acbd d26f bebd
0.056369215 -0.012422806 -0.05143975 -0.022801196 0.0103772795 -0.0139641445 -0.010212317 -0.096936785
-0.034865115 -0.08584723 -0.009585927 0.037104703 -0.015909785 -0.0787174 -0.022047497 0.0038161804
0.079932235 0.04958857 0.013284566 -0.048717406 0.09997054 -0.04741841 -0.003542433 -0.080891915
-0.086846225 -0.023913672 -0.03300021 -0.013317949 -0.0015885485 -0.010496409 0.0131194 -0.03199934
0.028300887 0.0043692538 -0.03568879 0.02612398 0.058204044 -0.11178599 -0.009710598 0.03867349
-0.038429607 0.017373584 -0.0036048666 0.064821385 -0.013431717 -0.012917278 0.09322212 -0.04452184
0.037950207 -0.0023581535 0.027822798 0.022641923 -0.015422095 -0.037015177 -0.10929001 -0.016050901
-0.0513418 -0.017853493 0.007874835 0.0012194357 -0.0021042963 0.020859426 -0.08437628 -0.09298672

sequential_1/dense_1/Add/ReadVariableOp f4 [128]
00000000: 6c52 1bbd 19c0 52bd 167d ac3d 0506 543d
00000010: 87db 91bd c441 20be f7a7 d2bd 3a6d 92bd
00000020: 7b82 d7bd c4ca 21bd b6bc 9ebd 9b33 3dbd
00000030: b0e7 36be f1f4 5dbc 09d0 85bd 80cb 87bd
00000040: 77d9 233d 0b62 a1bd 6365 fdbd 42e6 42be
00000050: 9b80 1bbe 5d63 dcbd 952c d9bd c098 f9bd
00000060: 54b4 4ebd 0ff7 c5bd 75cf adbd 803a 1dbe
00000070: 9b12 18bc 0cba 3fbb 32d0 a1bd 17fd 82bd
00000080: b7d3 9a3d e990 d0bd 6ab3 7dbd 5868 f9bd
00000090: 3062 6f3c 18a3 79bd bec3 e5bd 4785 43be
000000a0: 1a69 1ebe 9ea9 82bd 3dc8 3ebd 9164 ebbd
000000b0: 461d 84be edb0 b83d 2e07 66bd cb7e c2bc
000000c0: 6d6e 2ebc eb92 dfbc 953e b33d 0dd1 85be
000000d0: b315 fdbd fad8 4ebe 65fe 61be ea37 73bd
000000e0: 6804 5bbd 9862 8fbe cd32 e43d 552d 02be
000000f0: 9558 95bd 6490 e63b 3076 08bd 5e21 4fbc
00000100: aa1d 94be 5d6e 40bd 9120 09be 4c91 633d
00000110: 5f7a f4bd 2e35 87bc eb29 ddbd d36f 7f3c
00000120: 7210 1abd e01b 363d 3f95 9b3d d9d5 3abd
00000130: 8fad 90bc 853f 1cbe a499 9fbd b61b fd3d
00000140: 8adc 8abd 08fb 9f3d b637 10bd d2fc bebd
00000150: e1e3 c5bd dfd3 04bd 4f03 c4bc b621 f7bd
00000160: 5ded dc3c ac07 07be 8c15 61be 6562 2fbe
00000170: 6ac7 33be 45a1 18be 0081 8d3c 052d 2a3c
00000180: 6ae7 cabd f40c d23c 1934 debd 0558 3abd
00000190: 83f8 21be 902a 49bd 4bc2 f3bb 44c7 0cbe
000001a0: 45cf 8dbc dde6 edbd 79eb 20bc d8e7 87bd
000001b0: fc7b b9bc 4be2 77bb 74e8 b4bc a8b5 eb3c
000001c0: 0714 3c3c 42e7 46be 0f7c d9bd 5dcb d7bd
000001d0: 24a9 94bc fbcc e7bd 5c5b 88bd 48ab 42bd
000001e0: d8af 7b3d 0409 16bd c144 fbbd 4fbd 03be
000001f0: cc33 34bd 3736 a1bd ea54 e2bd e16a 2ebe
-0.0379204 -0.05145273 0.08422296 0.051763553 -0.0712195 -0.15650088 -0.10285943 -0.071497396
-0.10522934 -0.039500013 -0.077508375 -0.046191793 -0.1786182 -0.013547168 -0.0653382 -0.066306114
0.040002313 -0.07880028 -0.123728536 -0.19033149 -0.15185778 -0.107611395 -0.106042065 -0.12187338
-0.050464943 -0.09666263 -0.08486835 -0.15354347 -0.00928178 -0.002925518 -0.07901038 -0.06395929
0.07559913 -0.101838894 -0.06193868 -0.12178105 0.014610812 -0.060946554 -0.112189755 -0.1909381
-0.1546978 -0.06380008 -0.04657768 -0.11493791 -0.25803584 0.09018121 -0.05615919 -0.0237421
-0.010646445 -0.027291736 0.08752171 -0.26136056 -0.123576544 -0.20199957 -0.220697 -0.059379496
-0.053471 -0.2800491 0.11142502 -0.12712605 -0.07292286 0.0070362557 -0.033315837 -0.012642233
-0.28928882 -0.04698025 -0.1339133 0.055558488 -0.11937403 -0.01650485 -0.10799011 0.015590626
-0.03761334 0.044460177 0.07596826 -0.045614097 -0.017660884 -0.15258606 -0.077929765 0.12358801
-0.06780346 0.07811552 -0.03520938 -0.093255654 -0.09662605 -0.03242862 -0.023927359 -0.12066977
0.026968652 -0.1318652 -0.21980876 -0.17127378 -0.17556539 -0.1490527 0.017273426 0.01038671
-0.0990742 0.025640942 -0.108497806 -0.0454941 -0.15817456 -0.049112856 -0.007438933 -0.13747889
-0.017310748 -0.11616299 -0.009821766 -0.066360176 -0.022642128 -0.003782409 -0.022083499 0.028773144
0.011479384 -0.19424155 -0.106193654 -0.10536835 -0.018147059 -0.11318394 -0.066580504 -0.047526628
0.061446995 -0.03662969 -0.12268973 -0.12865184 -0.04399471 -0.07871669 -0.11051352 -0.17032959

sequential_1/dense_1/MatMul f4 [128, 6]
00000000: e499 b83d df6d f4ba e582 84bd 94e5 0b3e
00000010: 18dd a0bc 6940 09be b854 773d f42c 97bd
00000020: 39e8 913d fc1d 783d 1ef2 72bc f048 6cbd
00000030: 0643 14be f914 36be bf0b 083d 6c80 8f3d
00000040: 832f 86be c3eb 41bd c283 99bc 56a1 13be
00000050: 656b 493c bb5e c4be b678 30bc bcdd 6b3c
00000060: 8a07 2c3e 721b e8bd 7100 183e c4b6 eebd
00000070: 5d37 613d b2f4 95bd fdb3 0ebd 9c6d 833e
00000080: 6000 db3c e82a 4e3e 65fe 923d c5ab 063d
00000090: 9f0c d2bc 266e 6f3d b346 a4be 1aac 63be
000000a0: 99ad 1abe 3c2a b8bd 703f 153e a208 793d
000000b0: c14a 87bd 2129 983d 0325 a3bd 52da dc3d
000000c0: c430 eb3c 421e 463e 42ac 183e 4a85 833e
000000d0: de40 083d c873 05bd 1bed c4bd b13a 563d
000000e0: aa85 9bbd 7b96 71be 066f 04be 503f bdbd
000000f0: ca0e 60be 8ca7 febd 512e 9abb c829 43be
00000100: 98e6 babd 9bf7 633d 2030 e63c dd21 023d
00000110: 278d 53be 3688 f9bd 2ac4 43be 5117 5bbe
00000120: 3710 e0bd e4c2 633e dddf 1f3e c9a6 ef3d
00000130: c1db a0bd 0b69 073d a5f6 4e3d d7f0 00be
00000140: 0273 4c3d 1a69 8c3e f3f9 14be 5297 e5ba
00000150: af02 0fbe b79c e5bd f6f5 9abd 396c 073e
00000160: 417c 543d d67d d1bd cccc 73be bf76 4bbe
00000170: 5991 8f3d 6a35 4bbe 0390 3fbe 77ea a9bd
00000180: 612b f73d bc4a 0ebe 52fe fe3c f59e b4be
00000190: 1c10 1abd 5144 dc3d 588d fa3d 8319 343d
000001a0: 865a 8cbd aaa0 183d cd36 91bc 7511 503e
000001b0: 6c42 443e 0649 92bd 2091 c0bd 02ab 86bd
000001c0: f8cb eb3b ae6f 813d da4a 903d b692 893e
000001d0: b407 5d3e 6bdf a0bd 2713 24bd c559 acbc
000001e0: 5594 91bc 00f0 323e f0e1 f53c 9007 153d
000001f0: 5508 b73d 5177 653d c304 41be adf6 7cbd
00000200: b85d a1bd e3b6 55be 5d9d 12be 47a5 4d3d
00000210: 90e9 f0bd 559b 503c 2496 64bd c532 3d3e
00000220: 90d4 eb3d 4017 913c ea96 bcbd 10f4 a8bd
00000230: 232f 163e 3085 19be 8a2b 863d 4231 233e
00000240: b97b 83be 11c6 803b af64 253d 4911 cd3d
00000250: 2f8c 2abe 9c0c 323e b0b5 0cbe 42bf 973d
00000260: b8d8 c1bd 1f7d 65be 0cd4 733c 1335 1e3e
00000270: cb38 0a3e c13e 16be a124 013e 1002 5dbe
00000280: 0461 e73d b815 0b3e dac4 9cbc d934 b83e
00000290: 7691 a5bc 3876 6cb9 cefe 523c b36d 4f3c
000002a0: 2806 503e 7513 473c 6136 35bd bb2f 063e
000002b0: 0a90 7d3a 8a05 f2bd bb03 75bd 5c60 fbbd
000002c0: a7eb 08be 631b 973d d97c 43be 3b29 39bd
000002d0: b52b ed3d 2d32 a8bd f711 77bd 11ad 54be
000002e0: c86d c9bd ab65 46be 7a55 55be b4f1 8f3e
000002f0: db62 fc3d 774b d03d f8af 5cbc ace5 973c
00000300: 4077 613d ce36 bc3c c205 bebd ab14 7d3e
00000310: d0b5 243d 0834 acbd 42da 83bd 657f bd3e
00000320: d53c 39be b37f 26bd 69d4 753d 7816 17bb
00000330: b0b5 8d3b eee9 ab3b eb15 6b3e 1f0f 4fbd
00000340: ee8d 18bd c925 d73d 2d3a 70be 6c66 633d
00000350: 4bbf ecbd ac8c 7dbd fe46 b2bd dc82 093e
00000360: 60b8 2abd f747 4c3e 48ae 9bbd c614 5d3e
00000370: 5ee2 853d c0f3 6a3b 4ccf 563e f874 98bc
00000380: 910c b5bd bb85 293e b42b f0bd 5d06 1cbe
00000390: 2d59 f73d 9aa4 6b3d 2e0e 5f3d 0b57 0e3e
000003a0: 8ed6 0f3e eabb 9aba 17bf 8ebd 7fcd 4d3e
000003b0: 4b28 1d3e ca16 133e 04ba db3a b185 4a3c
000003c0: 95be c63d bfac 1d3e 9077 1f3e 20f8 5838
000003d0: 0c12 933c 136b 3c3e e150 51be d009 15ba
000003e0: 0cf7 65bd 9318 b23d b5f1 06be cb66 ed3d
000003f0: 221e 25bd b420 9cbd 44ae 123c 5eee 10be
0.09013727 -0.0018648467 -0.06470279 0.13661796 -0.019636676 -0.13403477 0.06038353 -0.07381621
0.07124371 0.06057547 -0.014828233 -0.057686746 -0.14478692 -0.17781438 0.033214327 0.070069164
-0.26208124 -0.04734398 -0.018739585 -0.14417014 0.012293671 -0.38353524 -0.010770967 0.014396127
0.16799751 -0.1133336 0.14843918 -0.116559535 0.05498444 -0.073220626 -0.03483962 0.25669563
0.026733577 0.20133555 0.07177428 0.032878656 -0.025640784 0.058454655 -0.3208519 -0.2223362
-0.15105285 -0.089924306 0.1457498 0.06079925 -0.06606055 0.0742972 -0.07966044 0.10783829
0.028709777 0.1934748 0.14909461 0.2568763 0.033264987 -0.03258112 -0.09615537 0.052302066
-0.07593854 -0.2359256 -0.12932977 -0.092405915 -0.21880642 -0.12434301 -0.0047052284 -0.19058907
-0.091260135 0.055656057 0.02809912 0.031770576 -0.20659314 -0.12184183 -0.191178 -0.21395613
-0.10940593 0.22242314 0.15612741 0.117017336 -0.07854415 0.03305916 0.050528187 -0.12591873
0.049914367 0.27423936 -0.14548473 -0.001751641 -0.13965867 -0.112115316 -0.075664446 0.13224877
0.05187631 -0.102290794 -0.23808593 -0.19869517 0.07010145 -0.19844595 -0.1870728 -0.08296674
0.12068821 -0.13895696 0.031127129 -0.35277525 -0.03761302 0.10755218 0.122339904 0.043969642
-0.068532035 0.037262596 -0.017726326 0.2031916 0.19165963 -0.07142834 -0.094026804 -0.06575586
0.007195946 0.06320129 0.07045527 0.26869744 0.2158497 -0.078551136 -0.040057328 -0.0210389
-0.017770926 0.17474365 0.030014962 0.036384165 0.08937136 0.056021992 -0.18849473 -0.061758686
-0.078792036 -0.20870547 -0.14317842 0.05020645 -0.117632985 0.012732347 -0.055807248 0.18476398
0.115151525 0.017711282 -0.09208472 -0.08249676 0.14666419 -0.14992213 0.06551273 0.15936759
-0.2568033 0.0039298614 0.040379222 0.100130625 -0.16655038 0.17387623 -0.13741183 0.074095264
-0.09465164 -0.22411011 0.014882099 0.15449934 0.13498227 -0.14672376 0.12611629 -0.21582818
0.11297801 0.13582504 -0.019136835 0.3597782 -0.020210963 -0.00022550754 0.012878133 0.012660432
0.20314848 0.012150635 -0.044241313 0.13104145 0.00096726476 -0.11817463 -0.05981801 -0.122742385
-0.13371144 0.073782705 -0.19090594 -0.045205336 0.11580602 -0.08212695 -0.060319867 -0.20769145
-0.09835392 -0.19374721 -0.20833388 0.28114092 0.12323543 0.10170644 -0.013469689 0.018542133
0.055045366 0.022975352 -0.09278442 0.24714915 0.040212452 -0.08408362 -0.06438114 0.37011257
-0.18089612 -0.040649127 0.060017023 -0.0023054164 0.0043246374 0.0052463925 0.2295758 -0.05055153
-0.03724473 0.10505254 -0.23459692 0.0555176 -0.11559924 -0.061901733 -0.08704947 0.13428825
-0.04167974 0.19949327 -0.07601601 0.21589956 0.06537317 0.0035850853 0.20977515 -0.018610463
-0.088402875 0.1655492 -0.11727086 -0.15236802 0.12077556 0.057530023 0.054456882 0.13900392
0.1404669 -0.001180527 -0.06970041 0.20097922 0.15347402 0.14364162 0.0016763811 0.012360976
0.097043194 0.15397929 0.15572953 5.1729497e-05 0.017952941 0.1840022 -0.20441009 -0.0005685361
-0.056143805 0.086960934 -0.13178141 0.11591872 -0.04031194 -0.07623425 0.008952681 -0.1415343
