app/src/main/ml/model_2.tflite (tflite, 14880 bytes, 8 tensors)

arith.constant f4 [3, 16]
0	0xbeaa3f11	-0.3325124
1	0x3e7deb1c	0.24796718
2	0x3e998e2a	0.29991275
3	0x3e5cdb0e	0.21567938
4	0xbf594230	-0.8486662
5	0x3dcebf3d	0.100950696
6	0x3e5aa21b	0.21350901
7	0xbef45d33	-0.47727355
8	0x3d976a8e	0.073933706
9	0x3e930720	0.28716373
10	0xbe3829ed	-0.17984743
11	0xbd13a51f	-0.036046144
12	0xbef0045c	-0.46878326
13	0x3ef63a9c	0.4809159
14	0xbf465a5d	-0.77481633
15	0xbea1994d	-0.31562272
16	0x3f0b07cb	0.54308766
17	0xbe848742	-0.25884444
18	0x3bd9c449	0.0066457135
19	0x3e8597cc	0.26092374
20	0xbe519010	-0.20465112
21	0xbef3f5db	-0.4764851
22	0x3f0ca9a6	0.5494636
23	0x3eb2a6be	0.3489284
24	0x3efbd365	0.4918472
25	0xbe4d7eaa	-0.2006785
26	0x3d94a76d	0.072584964
27	0xbed1bcc6	-0.40964335
28	0x3ef8d5b7	0.4860055
29	0xbe8c8b1d	-0.27449885
30	0x3e938cfd	0.28818503
31	0xbed1bec1	-0.40965846
32	0xbef7fa51	-0.48433164
33	0xbe273636	-0.16329274
34	0xbf343a66	-0.7040161
35	0xbf290b2d	-0.6603268
36	0x3deca0b9	0.11554093
37	0xbd284ac7	-0.04108694
38	0xbed713e7	-0.42007372
39	0x3f15721d	0.5837725
40	0xbd9f9459	-0.07791967
41	0xbf1a8f00	-0.6037445
42	0xbe619c73	-0.22032337
43	0x3f229792	0.6351253
44	0xbf2fbc9f	-0.6864719
45	0xbf42ee1a	-0.76144564
46	0xbd41e9f2	-0.04734225
47	0xbf4781bb	-0.7793233

arith.constant1 f4 [16, 32]
0	0xbeb00ab2	-0.3438316
1	0x3e41fdf8	0.18944538
2	0x3eb993bd	0.36245528
3	0x3e568fad	0.20953245
4	0x3e4fd76c	0.2029702
5	0x3d201604	0.039083496
6	0x3c848b84	0.016179807
7	0xbd2134c8	-0.039356977
8	0x3d8459a7	0.06462412
9	0x3df2a056	0.11846988
10	0xbea70695	-0.3262221
11	0x3eafc156	0.3432719
12	0xbe87b8de	-0.2650823
13	0xbe3ac849	-0.18240465
14	0xbee8bd1a	-0.45456773
15	0x3ed57995	0.41694322
16	0xbe8be58e	-0.27323574
17	0x3e9efd1a	0.31052476
18	0x3e332b41	0.17496969
19	0xbe9d59fa	-0.3073271
20	0x3efa3b99	0.48873594
21	0xbb136670	-0.0022491477
22	0xbe1720d7	-0.14758621
23	0xbe2ec8fe	-0.1706886
24	0xbe1bcbef	-0.15214513
25	0xbe925747	-0.28582212
26	0x3dd33942	0.103136554
27	0xbea9635c	-0.33083618
28	0xbe76916a	-0.24078909
29	0xbf008450	-0.5020189
30	0x3e41ed14	0.18938094
31	0x3e1e7410	0.15473962
32	0xba9f6692	-0.0012161306
33	0x3e925509	0.28580502
34	0x3d53e029	0.051727448
35	0x3eb5c577	0.35502216
36	0x3df9d055	0.12197939
37	0xbd6abcd3	-0.057308983
38	0x3d5868d3	0.052834343
39	0x3eda1ee8	0.42601705
40	0xbc809c31	-0.015699478
41	0x3ee6cf55	0.45080057
42	0x3e412051	0.18859984
43	0x3e2b0e8c	0.16704768
44	0xbe11a095	-0.14221413
45	0x3eaa236b	0.33230147
46	0xbe429478	-0.19001949
47	0xbd36d85e	-0.044639938
48	0x3e3f7f3a	0.18700877
49	0x3e8f54a0	0.2799425
50	0xbca708dd	-0.020389969
51	0x3ecb9d6b	0.39768538
52	0x3e2b5362	0.16731027
53	0x3d26334e	0.04057627
54	0x3ed5ce5b	0.41759
55	0x3e96f8c5	0.2948667
56	0x3ecb2191	0.39674047
57	0xbe54aa30	-0.20768046
58	0xbd6027bc	-0.054725394
59	0xbe4048e7	-0.1877781
60	0xbdebc10a	-0.11511429
61	0x3e6f551d	0.23372312
62	0xbdecf95a	-0.115709975
63	0x3e5b4e4e	0.2141659
64	0x3e065885	0.13119705
65	0x3ec325c4	0.3811475
66	0x3ea2b3f8	0.3177793
67	0x3ef169e0	0.4715109
68	0x3eb5c385	0.35500732
69	0xbda6a036	-0.081360266
70	0xbec59323	-0.3858882
71	0xbdfbc107	-0.122926764
72	0x3e99eaa1	0.3006182
73	0x3eea3b44	0.4574834
74	0x3e924912	0.28571373
75	0x3f0c35f9	0.54769856
76	0x3e9b333c	0.30312526
77	0xbea317b0	-0.3185401
78	0xbe15fbe8	-0.14646876
79	0x3e3bd37e	0.18342397
80	0xbeae70b3	-0.34070358
81	0x3ea30857	0.318423
82	0xbeb31af5	-0.34981504
83	0x3e6c3fe7	0.23071252
84	0x3ecb8cfe	0.39756006
85	0x3e27924d	0.16364403
86	0x3ed5aba7	0.41732523
87	0x3eede08c	0.46460378
88	0x3df4fd44	0.11962369
89	0xbe91e073	-0.28491554
90	0xbe96e694	-0.29472792
91	0xbef1cb9d	-0.47225657
92	0xbe858b9a	-0.2608307
93	0x3ec957d5	0.39324823
94	0x3c41d065	0.01182947
95	0x3e30cfbf	0.17266749
96	0x3bbb89d0	0.0057232156
97	0x3e9e8358	0.30959582
98	0x3e3dc791	0.1853316
99	0xbdb02b0b	-0.0860196
100	0x3df9c4f4	0.12195769
101	0x3dd7ba20	0.105335474
102	0xbe9eebb6	-0.31039208
103	0x3ddc4e7c	0.10757157
104	0x3e82faea	0.25582057
105	0x3f0a1a04	0.53945947
106	0x3e04a96a	0.12955251
107	0x3ea9b9f4	0.33149683
108	0xbdc8e9a6	-0.0981019
109	0xbeb6fd3a	-0.35740072
110	0xbebbb439	-0.36660936
111	0x3c7c1535	0.0153859155
112	0xbeb30fca	-0.34972984
113	0x3edef453	0.4354578
114	0xbed9fe9a	-0.42577058
115	0xbdf60bce	-0.1201397
116	0x3ed26c2f	0.41098163
117	0x397e1f9c	0.00024235103
118	0x3e3f97fc	0.18710321
119	0x3e693bfd	0.2277679
120	0xbe6d27c6	-0.23159704
121	0x3caf89e3	0.021428054
122	0xbe90f212	-0.28309685
123	0xbe800440	-0.25003242
124	0xbdc5e06b	-0.09661945
125	0xbe4fbbf8	-0.20286548
126	0xbdda2a63	-0.10652616
127	0x3e826620	0.2546854
128	0x3d76889e	0.060188882
129	0x3df72d96	0.12069242
130	0x3e37a529	0.17934097
131	0xbeba5a9b	-0.3639725
132	0xbe5b528f	-0.21418212
133	0x3e891af5	0.2677838
134	0x3d2f55b7	0.042806353
135	0x3e40aa3b	0.18814938
136	0x3e1f0bc1	0.15531828
137	0xbe385ad2	-0.18003395
138	0x3e7762ad	0.24158736
139	0xbf010821	-0.5040303
140	0x3d154652	0.036444016
141	0xbe95d31c	-0.29262626
142	0x3e8c3b5b	0.27389035
143	0xbe8438d3	-0.25824603
144	0x3e9e35fa	0.30900556
145	0x3d7980f4	0.060913995
146	0x3e7bba30	0.24582744
147	0xbd98d9b1	-0.07463396
148	0xbe8327ab	-0.25616202
149	0xbe939bda	-0.28829843
150	0xbe7943e4	-0.24342304
151	0xbeb490ba	-0.35266668
152	0x3e4bffb6	0.19921765
153	0xbe5b150b	-0.21394746
154	0x3ee5e6a9	0.44902542
155	0x3dbe1da3	0.092829965
156	0x3eca8292	0.39552742
157	0x3e0f2a54	0.1398099
158	0x3ee62ef0	0.44957685
159	0xbe2eb5de	-0.17061564
160	0xbda9f970	-0.082995296
161	0xbdea55b5	-0.114421286
162	0x3e6d72e8	0.23188365
163	0x3ea5159f	0.32243058
164	0x3e0e11cd	0.13873978
165	0xbe88c4eb	-0.26712736
166	0xbeba6dd9	-0.36411932
167	0x3f034b6e	0.5128697
168	0xbe4896ab	-0.19588725
169	0xbe2cbb40	-0.16868305
170	0x3cdde0fe	0.027084824
171	0xbd75f40b	-0.06004719
172	0xbe88e167	-0.26734468
173	0x3eb439f7	0.35200474
174	0x3e49b5d5	0.1969827
175	0xbdba1739	-0.090864606
176	0x3d29f03a	0.041488864
177	0xbd79f642	-0.061025865
178	0x3dab5740	0.08366251
179	0x3ef3c358	0.47609973
180	0xbe6b7eeb	-0.22997634
181	0x3e84a60c	0.25907934
182	0x3d97fa69	0.07420809
183	0xbe2e80f0	-0.17041373
184	0xbe339f13	-0.17541151
185	0xbd055aaf	-0.032557186
186	0x3cf45aa3	0.029828375
187	0x3dbbfa81	0.09178639
188	0x3bfb7446	0.007673773
189	0x3e7c4b98	0.24638212
190	0x3e690327	0.22755109
191	0x3eb3983c	0.35077083
192	0xbe80c9c7	-0.25153944
193	0x3e90eced	0.2830576
194	0x3de841aa	0.113406494
195	0x3dccd488	0.100014746
196	0x3f01bdcd	0.5068024
197	0xbe141c07	-0.14463817
198	0xbebe1193	-0.37122783
199	0xbe36c11d	-0.17847104
200	0x3eb70213	0.3574377
201	0xbe684b7e	-0.22685048
202	0xbda5425b	-0.08069297
203	0xbd0f0e2b	-0.03492562
204	0x3e8339c1	0.2563
205	0xbe03c96a	-0.12869802
206	0x3e2f6e5d	0.17131944
207	0x3f02d120	0.5110035
208	0xbe4a05a4	-0.19728714
209	0x3d8dcd75	0.069239534
210	0xbea9c3e6	-0.3315727
211	0xbdc7febf	-0.09765386
212	0x3ea164cc	0.31522214
213	0x3db868f4	0.09004393
214	0x3daab021	0.08334375
215	0xbe44fb0d	-0.19236393
216	0xbd9afccb	-0.07567748
217	0xbeb1c88f	-0.34723327
218	0x3df60090	0.12011826
219	0xbdf78317	-0.1208555
220	0x3d823648	0.063580096
221	0x3e013027	0.12616025
222	0xbd0e31c0	-0.034715414
223	0x3e912746	0.28350276
224	0xbe4f9f35	-0.20275576
225	0xbe646acf	-0.22306369
226	0xbda32c7b	-0.07967468
227	0xbe8bcb69	-0.27303627
228	0x3ec43c12	0.3832708
229	0x3eb6703e	0.3563251
230	0xbc70151e	-0.014653472
231	0x3d8b6edc	0.06808254
232	0x3c3abcc4	0.011397544
233	0xbeb1c855	-0.34723154
234	0xbe8f7db1	-0.28025582
235	0xbe8831c3	-0.26600465
236	0x3e0aa03c	0.13537687
237	0xbeab0e4f	-0.33409354
238	0x3e8f2979	0.2796133
239	0x3e26a540	0.16273975
240	0x3e61cd6d	0.2205102
241	0x3e675c99	0.22593917
242	0xbba1925d	-0.004930778
243	0xbea79828	-0.32733274
244	0xbe5b519f	-0.21417855
245	0xbe9c3305	-0.30507675
246	0xbecd822b	-0.40138373
247	0xbe878e9e	-0.26475996
248	0xbda48f1a	-0.08035107
249	0x3e37c966	0.17947921
250	0x3edd360c	0.43205297
251	0x3e87ac18	0.26498485
252	0x3ef2a585	0.47391906
253	0xbe40554c	-0.18782538
254	0x3f0779b3	0.52920073
255	0xbe8d4610	-0.27592516

arith.constant2 f4 [32, 64]
0	0xbe09d411	-0.13459803
1	0xbdb6fc9f	-0.089349024
2	0x3d1b0759	0.037848804
3	0xbcf06b00	-0.029347897
4	0xbe227cfc	-0.1586799
5	0xbdcf68c4	-0.10127404
6	0xbd85e932	-0.06538619
7	0xbdc7b0ae	-0.09750496
8	0xbce55b60	-0.027997673
9	0x3d2a6c90	0.04160744
10	0x3e07d5c0	0.13265133
11	0x3def8fb8	0.11697334
12	0xbdfe3367	-0.12412148
13	0xbd8e4d98	-0.069483936
14	0x3eaf8b2a	0.3428586
15	0xbdfa46a6	-0.12220506
16	0x3e0a8df2	0.1353071
17	0xbeccee33	-0.40025482
18	0x3d097550	0.033559144
19	0x3e0904ab	0.13380687
20	0x3d96957a	0.07352729
21	0xbe9d4c43	-0.30722246
22	0x3d3982ac	0.045290634
23	0x3de92367	0.113837056
24	0x3e08808c	0.13330287
25	0x3e071e1c	0.1319508
26	0x3d7a892f	0.061165985
27	0xbd6f7131	-0.058457557
28	0x3e0c0a4e	0.13675806
29	0x3d04062b	0.032232445
30	0xbdae6652	-0.0851561
31	0x3d974cce	0.07387696
32	0xbdbc02c3	-0.09180214
33	0x3a83c0aa	0.0010051925
34	0x3e8b872a	0.2725156
35	0xbe71a846	-0.23599347
36	0x3d50a23f	0.05093598
37	0x3e090104	0.13379294
38	0x3e0822c7	0.13294517
39	0xbe97242a	-0.29519778
40	0x3ec7b483	0.39004907
41	0xbe1d0160	-0.15332556
42	0xbde04414	-0.10950485
43	0x3e8f5c3e	0.28000063
44	0xbbd68e80	-0.006547749
45	0x3e7901ec	0.2431714
46	0x3dffe540	0.12494898
47	0x3e2f19f3	0.17099743
48	0x3d7d2e12	0.061811514
49	0x396f5b90	0.00022826926
50	0x3dc703a8	0.09717494
51	0x3dcd8a98	0.100362
52	0xbda8e1e8	-0.08246213
53	0x3e00132c	0.12507313
54	0x3e2352a1	0.15949489
55	0x3ea893e8	0.32925344
56	0x3df66f3c	0.12032935
57	0xbe2ed7f6	-0.1707457
58	0x3e9c1f4c	0.30492628
59	0xbd77456e	-0.060368948
60	0xbdea5a78	-0.11443037
61	0x3e27cd78	0.16386974
62	0x3d4d345b	0.05009876
63	0xbe3b3e84	-0.18285567
64	0xbdee1a8f	-0.116261594
65	0xbe7b4b67	-0.24540482
66	0x3d814477	0.06311887
67	0xbe2ca6b0	-0.16860461
68	0xbd2a2020	-0.041534543
69	0xbe6e0e63	-0.23247676
70	0xbddefa77	-0.10887616
71	0xbd8392f7	-0.06424516
72	0x3d8c8750	0.06861746
73	0x3da038e0	0.07823348
74	0x3e556dfc	0.20842737
75	0x3d58a930	0.052895725
76	0x3c957d48	0.018248215
77	0x3bb10200	0.0054018497
78	0xbe2397ad	-0.15975828
79	0xbd4c67ed	-0.0499038
80	0x3f26bbd4	0.6513035
81	0x3e350e44	0.17681223
82	0xbe5d81f6	-0.21631607
83	0xbe77c2c8	-0.24195397
84	0x3e3d5b64	0.18491894
85	0xbdd393aa	-0.10330899
86	0x3c305387	0.010762102
87	0x3ddd20e8	0.10797292
88	0x3dc26028	0.094909966
89	0xbe27e6f5	-0.16396697
90	0xbe0751b3	-0.1321476
91	0x3d9ee458	0.07758397
92	0x3e83f64d	0.2577385
93	0x3ee8fab8	0.45503783
94	0xbdf7a9cb	-0.12092932
95	0x3ea9e637	0.33183452
96	0x3e8cef61	0.27526382
97	0x3c2d2fea	0.010570506
98	0xbc3e82bf	-0.011627852
99	0xbdc34853	-0.09535279
100	0xbec7b899	-0.39008024
101	0x3e9a3e0b	0.3012546
102	0x3ef9496d	0.48688832
103	0x3d695e44	0.056974664
104	0x3deb7c8d	0.114983656
105	0xbe6c8ca0	-0.23100519
106	0x3e310fb9	0.17291154
107	0xbd744043	-0.059631597
108	0xbd69dcd0	-0.05709535
109	0x3eaffaf7	0.34371158
110	0x3ddaf4e8	0.106912434
111	0x3d89cfcd	0.06729088
112	0xbd6f4579	-0.058415864
113	0xbed43e70	-0.41453886
114	0xbdc488e8	-0.09596425
115	0x3e215a04	0.15756994
116	0xbe5d563f	-0.21614932
117	0xbe13b03c	-0.14422697
118	0xbeaec958	-0.34137988
119	0xbe07e8a3	-0.13272338
120	0x3deacb85	0.114645995
121	0xbeb323f9	-0.34988382
122	0xbe85a2a5	-0.2610065
123	0x3d8e17b2	0.06938113
124	0xbcce67c0	-0.025195956
125	0xbc9f95af	-0.019480554
126	0x3cbb22ac	0.022843681
127	0x3e0026d3	0.1251481
128	0x3e3331ce	0.17499468
129	0xbe4343ad	-0.19068785
130	0x3e648178	0.22315013
131	0xbd05e430	-0.03268832
132	0x3e2c8880	0.16848946
133	0x3d1d497a	0.03840015
134	0x3d0dc124	0.03460802
135	0x3c08bb02	0.008345367
136	0xbdd5d818	-0.10441607
137	0x3e678974	0.22611028
138	0x3ccd82c0	0.02508676
139	0xbe620998	-0.22073972
140	0x3e7515fc	0.23934168
141	0x3d04d210	0.032426894
142	0xbceed820	-0.02915579
143	0xbe5e0f1c	-0.21685451
144	0x3e458fa0	0.1929307
145	0x3e998794	0.2998625
146	0xbe006646	-0.12539014
147	0xbe965a30	-0.29365683
148	0x3e5c4d35	0.21513827
149	0x3da61f0a	0.08111389
150	0xbd4c2d1f	-0.04984772
151	0xbdd20094	-0.102540165
152	0x3e49b488	0.19697773
153	0x3e1c14e6	0.15242347
154	0xbe284173	-0.16431217
155	0xbce3e6f6	-0.027820092
156	0x3e879dd7	0.2648761
157	0x3d662189	0.056184325
158	0xbe52d8b4	-0.20590478
159	0x3ea3ce77	0.31993458
160	0xbdc924fc	-0.09821507
161	0xbe4d372c	-0.20040578
162	0x3e15b42f	0.14619516
163	0x3da47f16	0.08032052
164	0xbeef465a	-0.4673336
165	0x3e25f798	0.16207731
166	0xbeaf2500	-0.34207916
167	0xbe5b998d	-0.21445294
168	0xbebcd462	-0.36880785
169	0x3dad0fd8	0.084502876
170	0xbe3256cc	-0.17415923
171	0x3af1a387	0.0018435576
172	0xbe347244	-0.17621714
173	0xbe04d797	-0.12972866
174	0x3cd28dc0	0.025702357
175	0xbe730862	-0.23733667
176	0xba6f4dd4	-0.0009128724
177	0x3e294274	0.16529256
178	0xbd619e30	-0.0550825
179	0xbe5c77a0	-0.21530008
180	0x3e451b99	0.19248809
181	0x3e39c964	0.1814323
182	0xbec9686d	-0.39337483
183	0xbd928593	-0.071543835
184	0x3d83711a	0.06418057
185	0xbe90b12f	-0.2826018
186	0xbd98a29f	-0.074528925
187	0x3d3e7e93	0.04650743
188	0xbd287c60	-0.04113424
189	0x3dea41aa	0.11438306
190	0xbdbb836f	-0.09155928
191	0x3df88403	0.12134554
192	0xbe88e982	-0.26740652
193	0xbd7b3d37	-0.061337676
194	0x3d939ade	0.07207273
195	0xbcf411a0	-0.02979356
196	0xbe4b1ce0	-0.19835234
197	0xbdb1587f	-0.086594574
198	0x3e6f6639	0.23378839
199	0x3e0ae506	0.13563928
200	0xbdb916e0	-0.09037566
201	0x3e576198	0.21033323
202	0xbe1c9cec	-0.15294236
203	0x3e70fd8c	0.2353422
204	0xbddf6185	-0.10907272
205	0xbccc6fa0	-0.02495557
206	0x3e33d465	0.17561491
207	0xbe55544e	-0.20832941
208	0x3e8b699c	0.2722901
209	0xbe0836f5	-0.13302214
210	0xbe2c2b3b	-0.16813366
211	0xbde9041d	-0.11377738
212	0x3e5520ae	0.20813248
213	0x3cc5f3c7	0.024164094
214	0x3dbee1a8	0.09320384
215	0x3d81994b	0.063280664
216	0x3e65d0e0	0.2244296
217	0xba71bbcd	-0.0009221405
218	0x3bc403bb	0.00598189
219	0x3d8e9b2b	0.0696319
220	0x3e47c2ea	0.19507948
221	0x3f10407a	0.56348383
222	0xbdb2556d	-0.087077
223	0x3e279302	0.16364673
224	0x3e150658	0.14553201
225	0xbebd0804	-0.36920178
226	0xbdad5691	-0.08463777
227	0xbc7cfa0c	-0.015440475
228	0xbe34eac2	-0.17667678
229	0xbcf22ed8	-0.029563352
230	0x3ea2e66d	0.31816426
231	0xbe844823	-0.25836286
232	0xbd70a189	-0.058747802
233	0x3e241104	0.16022116
234	0x3eec2678	0.461231
235	0x3e564d16	0.20927843
236	0xbe1ac3ec	-0.15113801
237	0x3c9a69b7	0.018849237
238	0x3e1aec40	0.15129185
239	0xbe63cad5	-0.22245343
240	0x3deb1121	0.114778765
241	0xbe56e9f7	-0.20987688
242	0xbd74d400	-0.05977249
243	0xbd725d30	-0.0591709
244	0xbe775ea3	-0.24157195
245	0x3d012fa0	0.03153956
246	0xbeebd8b5	-0.46063772
247	0xbe9d0999	-0.30671385
248	0x3e8d44c9	0.2759154
249	0xbe06dc98	-0.13170087
250	0x3d5fc09e	0.054627053
251	0xbe739999	-0.23789062
252	0x3c8e4a00	0.01736927
253	0x3e8d3de4	0.2758628
254	0x3d910bd4	0.07082334
255	0xbc904fa7	-0.017616106

arith.constant3 f4 [3]
0	0x3ccf5ad9	0.025311874
1	0xbccbc171	-0.024872513
2	0xbbaa49d6	-0.00519679

arith.constant4 f4 [16]
0	0x3c6debf8	0.014521591
1	0x3d7a9a9f	0.061182614
2	0x3de79010	0.113067746
3	0x3e149384	0.14509398
4	0x3d483cb4	0.048886016
5	0x3cd16b0d	0.025563741
6	0x3d96d83e	0.07365464
7	0x3df9f8a6	0.12205629
8	0xbcb9c0b9	-0.022674905
9	0x3dfa0cf7	0.12209504
10	0x3ae59574	0.0017515854
11	0x3d5eae3c	0.05436538
12	0x3d4826d6	0.04886516
13	0xbc127049	-0.008937904
14	0xbcd47cf6	-0.025938492
15	0x3e133a06	0.14377603

sequential_1/dense_1_2/Add/ReadVariableOp f4 [32]
0	0xbcf1dada	-0.029523302
1	0x3d8e659c	0.06952974
2	0x3d729dea	0.05923263
3	0x3dba98ac	0.09111151
4	0x3dc1d49d	0.09464381
5	0xbc223f47	-0.009902782
6	0xbe06dda6	-0.1317049
7	0x3d68c52e	0.05682867
8	0x3e212e3f	0.15740298
9	0x3de53f29	0.111936875
10	0x3c8abe1e	0.016936358
11	0x3e039757	0.128507
12	0x3de27d57	0.11059063
13	0x3ce80f9c	0.028327756
14	0xbd445128	-0.04792896
15	0x3da4bcbc	0.08043811
16	0xbcd4afde	-0.025962766
17	0x3d97df4f	0.074156396
18	0xbda995a4	-0.08280495
19	0x3d2ac508	0.04169181
20	0x3df834ad	0.12119422
21	0x3ded9c7c	0.11602113
22	0x3e20b00f	0.15692161
23	0x3d9e0f02	0.07717706
24	0xbc167225	-0.009182488
25	0xbd883d6c	-0.0665234
26	0xbd8af39a	-0.067847446
27	0xbd53a67e	-0.05167245
28	0xbd4191cb	-0.04725818
29	0xbc304238	-0.010757975
30	0x3ca17005	0.019706735
31	0x3de7ac96	0.11312215

sequential_1/dense_1/Add/ReadVariableOp f4 [64]
0	0xbe0afa8d	-0.1357214
1	0x3ba78c8c	0.00511319
2	0xbba6f8c2	-0.005095572
3	0x00000000	0.0
4	0x00000000	0.0
5	0xbdcd8537	-0.10035174
6	0x3d540453	0.051761936
7	0xbc29c305	-0.010361438
8	0x00000000	0.0
9	0x00000000	0.0
10	0x00000000	0.0
11	0x00000000	0.0
12	0x3d0f86b7	0.035040583
13	0x00000000	0.0
14	0xbc9b4412	-0.018953357
15	0xbd213e09	-0.039365802
16	0x3e1ae4e2	0.15126374
17	0x3b7bb4a5	0.0038407233
18	0x3a53b787	0.0008076359
19	0xbcf07c93	-0.029356277
20	0x3d44e61c	0.048071012
21	0x3d4c9703	0.049948703
22	0x3d7e7104	0.0621195
23	0xbdb72164	-0.08941916
24	0x00000000	0.0
25	0xbd313e9e	-0.043272607
26	0xbd905608	-0.07047659
27	0xbdbc901a	-0.09207173
28	0x3d536e81	0.051619057
29	0x3ddbe9ff	0.107379906
30	0xbd3cf231	-0.04612941
31	0x3e15d04a	0.14630237
32	0x3d9c84e4	0.076425344
33	0x3cfba0f1	0.030716391
34	0x3d30486e	0.043037824
35	0x3d62f590	0.055409968
36	0xbe012dde	-0.12615153
37	0x3dcae73e	0.09907387
38	0x3d5686ee	0.052374773
39	0xbdc48315	-0.095953144
40	0x3d438bc3	0.04774071
41	0x00000000	0.0
42	0x3df1651f	0.117868654
43	0xbd330017	-0.043701258
44	0x00000000	0.0
45	0x3e010dc8	0.12602913
46	0x00000000	0.0
47	0xbda7f299	-0.08200569
48	0x3de3ca5b	0.111225806
49	0xbc99c084	-0.018768556
50	0x00000000	0.0
51	0x00000000	0.0
52	0xbcdf75ea	-0.027277905
53	0x00000000	0.0
54	0xbdeb81d6	-0.114993736
55	0xbe00648f	-0.1253836
56	0x3cf163fc	0.029466622
57	0x3d77320f	0.060350474
58	0xbe2c3798	-0.16818082
59	0xbe04be1c	-0.12963146
60	0x00000000	0.0
61	0x3d9a4db2	0.075343505
62	0xbe176c59	-0.14787425
63	0x3cc7f7de	0.024410184

sequential_1/dense_1/MatMul f4 [64, 6]
0	0x3c2eb1fc	0.010662552
1	0x3ea131b2	0.31483227
2	0xbdde6c7c	-0.108605355
3	0x3ea75766	0.32683867
4	0xbd17e7e7	-0.037086394
5	0x3d8c1916	0.06840722
6	0x3e430546	0.1904498
7	0xbd6287b6	-0.055305205
8	0xbe10bc55	-0.14134343
9	0x3f048176	0.5176004
10	0x3df48391	0.11939157
11	0xbcc216ee	-0.023692574
12	0x3cbdc5f0	0.023165673
13	0x3ca2a234	0.019852735
14	0xbcad7694	-0.021174707
15	0xbc7b88ee	-0.015352471
16	0xbdd54c48	-0.1041494
17	0xbe50893e	-0.20364854
18	0xbe8f45eb	-0.2798303
19	0xbe5b1b76	-0.21397194
20	0xbe72641d	-0.23671003
21	0x3da8efa0	0.0824883
22	0x3e27fe6a	0.16405645
23	0xbddb82f0	-0.10718334
24	0xbd358000	-0.044311523
25	0x3d869a30	0.06572378
26	0xbe81a6f0	-0.25322676
27	0xbd314ca8	-0.043285996
28	0xbdc1b686	-0.09458642
29	0xbe71684c	-0.23574942
30	0x3e3cb352	0.1842778
31	0x3e8eebca	0.27914268
32	0xbe089625	-0.13338526
33	0x3d6d38de	0.05791556
34	0x3ec2ab1d	0.38021174
35	0xbb1bbd04	-0.0023763785
36	0x3e7e3647	0.24825393
37	0xbe7c52c3	-0.24640946
38	0x3d3eb45c	0.046558723
39	0xbf0700cc	-0.5273559
40	0x3d3c0042	0.045898683
41	0x3e804695	0.2505385
42	0xbdbdbefd	-0.09264944
43	0x3d84992f	0.0647453
44	0xbe95926d	-0.29213277
45	0x3e81d716	0.2535941
46	0xbe47e014	-0.19519073
47	0xbe27e26f	-0.16394971
48	0xbd214208	-0.039369613
49	0xbe37df09	-0.17956175
50	0xbe80e015	-0.2517096
51	0xbe1fc9cb	-0.15604322
52	0x3e34514e	0.1760914
53	0xbdf3fc08	-0.119133055
54	0xbc8c7ae0	-0.017148435
55	0xbe8bae2a	-0.27281314
56	0xbd55ae1c	-0.052167997
57	0xbd7abc4c	-0.06121473
58	0xbdbe0276	-0.09277813
59	0xbc2bfba0	-0.010497004
60	0xbbf89640	-0.0075862706
61	0xbd6e9058	-0.058243126
62	0xbe859075	-0.26086774
63	0x3d123e30	0.035703838
64	0xbe91637a	-0.28396207
65	0xbdee5b88	-0.11638552
66	0x3e4adaa6	0.1980997
67	0x3b878780	0.004136026
68	0xbe06a82c	-0.1315009
69	0xbe2b2050	-0.16711545
70	0xbe186adf	-0.14884518
71	0xbe7729b2	-0.24136999
72	0x3e2be25d	0.1678557
73	0x3e3fde2a	0.18737093
74	0xbeaeefa4	-0.34167206
75	0xbd4e48fc	-0.050362572
76	0xbd2fefc4	-0.042953268
77	0x3dba0d88	0.09084612
78	0x3cebe1c0	0.02879417
79	0xbe69f954	-0.22849017
80	0xbe60fb0e	-0.2197077
81	0x3e0a2090	0.13488984
82	0xbdb097b8	-0.08622688
83	0xbe28d689	-0.16488089
84	0x3b03b1d9	0.002009502
85	0xbd4e5a05	-0.050378818
86	0x3ebc3cd4	0.36765158
87	0x3ebfefe7	0.37487718
88	0x3cea9cd6	0.028639238
89	0xbe155e6b	-0.14586799
90	0x3c88c3c9	0.01669492
91	0x3e418d1d	0.18901487
92	0xbd0310ee	-0.031998567
93	0x3ef42558	0.4768474
94	0x3e185409	0.14875807
95	0xbe1482c4	-0.14503008
96	0xbde7dd42	-0.113214985
97	0xbd032446	-0.032017015
98	0x3e60e229	0.21961273
99	0x3d9078cb	0.070542894
100	0xbcef9b39	-0.02924882
101	0xbe87e5e5	-0.26542583
102	0xbdb976c9	-0.090558596
103	0x3eac85ab	0.3369573
104	0xbe82099f	-0.25397965
105	0xbe71c5b1	-0.2361057
106	0x3ea2dbfc	0.3180846
107	0x3d30cd35	0.04316445
108	0x3dbc1824	0.09184292
109	0x3e6e6959	0.23282374
110	0x3e0c547c	0.13704103
111	0xbedbbf28	-0.42919278
112	0x3cb7d392	0.022439752
113	0x3d0813e9	0.033222113
114	0x3df769b1	0.12080706
115	0xbe848208	-0.25880456
116	0xbe4d8bb7	-0.20072828
117	0x3f09fce7	0.53901523
118	0xbb84c8d1	-0.0040522595
119	0x3e8f6bf7	0.28012058
120	0x3e69f579	0.22847547
121	0x3e2fd235	0.17170031
122	0x3dc2a0b0	0.09503305
123	0xbe84a27c	-0.25905216
124	0x3d99acab	0.07503637
125	0xbe44873e	-0.19192216
126	0xbe843885	-0.2582437
127	0xbe53e3cf	-0.20692371
128	0xbd7e6de8	-0.062116534
129	0xbe192efb	-0.14959328
130	0x3e8391f6	0.25697297
131	0x3e735449	0.23762621
132	0x3b8a8462	0.004227207
133	0x3dc27420	0.09494805
134	0xbea768d4	-0.32697165
135	0xbea02f66	-0.31286162
136	0xbd703ea4	-0.05865349
137	0x3e84c3e3	0.259307
138	0x3dee66e7	0.11640721
139	0x3e894ec4	0.26817906
140	0x3e817bc1	0.2528973
141	0x3d117129	0.03550831
142	0xbe1e3151	-0.154485
143	0x3de94aae	0.11391197
144	0xbdb22970	-0.0869931
145	0x3b540300	0.003235042
146	0xbe298bab	-0.16557185
147	0x3d857454	0.065163285
148	0x3db96754	0.090529114
149	0xbdd099ba	-0.10185571
150	0x3e1a85e7	0.15090142
151	0xbba83c48	-0.005134139
152	0x3cf2e734	0.029651262
153	0x3eb12d4c	0.3460487
154	0xbe840c51	-0.25790647
155	0x3e1ac575	0.15114386
156	0x3c6b8c80	0.0143767595
157	0xbd8c5735	-0.06852571
158	0x3e30d2e1	0.17267944
159	0xbd6a0fc5	-0.057143945
160	0x3e79064d	0.2431881
161	0xbd3a023b	-0.045412283
162	0x3de777bd	0.11302135
163	0x3a8a38d9	0.0010545506
164	0x3e423f49	0.18969454
165	0x3ea7f352	0.32802826
166	0x3e74f5f5	0.2392195
167	0xbd959ebd	-0.073056675
168	0x3e3fe2bc	0.18738836
169	0xbc5495d9	-0.01297518
170	0xbdb4565d	-0.08805535
171	0xbf09c061	-0.5380917
172	0xbdedb3f0	-0.11606586
173	0x3e2eb068	0.17059481
174	0xbeeb2078	-0.4592321
175	0xbda16f65	-0.07882575
176	0xbd1ccc3f	-0.03828072
177	0xbd579167	-0.0526289
178	0xbe8b3dd6	-0.27195615
179	0x3e0dbc92	0.13841465
180	0x3e21ae45	0.15789135
181	0x3e6e48ef	0.2327001
182	0xbdb811e8	-0.0898779
183	0x3f001683	0.5003435
184	0xbd8bd973	-0.068285845
185	0xbdb2be41	-0.08727694
186	0xbebfce17	-0.37461922
187	0xbd91e7aa	-0.071242645
188	0x3e97e895	0.29669634
189	0x3e17ae8e	0.14812681
190	0xbec6f47a	-0.38858396
191	0xbeb648d2	-0.35602432
192	0xbebe9259	-0.3722103
193	0xbe601166	-0.21881637
194	0x3e0cd2aa	0.13752237
195	0xbe202a61	-0.15641166
196	0xbd6f96d5	-0.058493454
197	0x3e6a04c0	0.22853374
198	0xbe9d8640	-0.30766487
199	0xbe100f90	-0.14068437
200	0xbe27bd82	-0.16380885
201	0x3d32901a	0.043594457
202	0x3ebf53b1	0.3736854
203	0xbe019906	-0.1265603
204	0xbe9823bf	-0.29714772
205	0xbdd90f54	-0.10598627
206	0x3e24a290	0.16077638
207	0x3b488314	0.0030595707
208	0xbdeb50f9	-0.11490054
209	0x3e900fcf	0.2813706
210	0xbe91dd5d	-0.284892
211	0xbeba6c91	-0.36410955
212	0xbe33adc7	-0.1754676
213	0xbe94b5dc	-0.29044998
214	0x3eb0cfe0	0.34533596
215	0x3d98d730	0.07462919
216	0xbe1d047a	-0.15333739
217	0x3e8caf37	0.27477428
218	0x3e81af9c	0.25329292
219	0xbe83ec6f	-0.25766322
220	0xbe392abe	-0.18082711
221	0xbe45860f	-0.1928942
222	0xbd9e8f6d	-0.077422
223	0xbd86790a	-0.06566055
224	0xbdd93556	-0.10605876
225	0xbe663cc2	-0.22484115
226	0xbe65ac3d	-0.22428985
227	0x3e827f58	0.2548778
228	0xbdb09d29	-0.08623726
229	0xbe9984e8	-0.29984212
230	0xbe91c811	-0.2847295
231	0x3caffe75	0.02148364
232	0xbe3b2914	-0.18277389
233	0x3e2d4a52	0.16922882
234	0xbe51c044	-0.204835
235	0x3e8a6a5a	0.27034265
236	0xbda1e62d	-0.07905231
237	0x3eecda59	0.46260336
238	0x3e7a5aed	0.24448748
239	0x3d9ecb15	0.077535786
240	0xbd065ce2	-0.032803424
241	0xbe90514c	-0.28187025
242	0xbe5d6354	-0.21619922
243	0x3ec6e1c1	0.38844112
244	0x3df13d41	0.117792614
245	0xbde82bae	-0.11336456
246	0x3ce21750	0.027599007
247	0xbe7306b6	-0.23733029
248	0xbd87b568	-0.06626397
249	0xbe03cc23	-0.1287084
250	0xbe7084ec	-0.23488206
251	0xbe6c7822	-0.23092702
252	0xbedb61dd	-0.428481
253	0x3e13ddb2	0.14440039
254	0x3e068a77	0.13138758
255	0x3db0b48a	0.08628185
