app/src/main/ml/model_1.tflite (tflite, 15396 bytes, 10 tensors)

arith.constant f4 [4, 16]
0	0xbe8c922b	-0.27455267
1	0xbe787169	-0.24262013
2	0x3f2faf01	0.6862641
3	0xbd574280	-0.052553654
4	0xbe8b927d	-0.272602
5	0x3ec7004a	0.38867408
6	0xbed9198f	-0.42402312
7	0xbefd03b1	-0.4941688
8	0x3e367f83	0.1782208
9	0x3f36d851	0.7142382
10	0xbea66f75	-0.3250691
11	0xbe9e693f	-0.3093967
12	0x3d6bbb91	0.057551924
13	0xbd1e336b	-0.038623255
14	0x3f06ca39	0.5265232
15	0xbc651832	-0.013982819
16	0x3ea4dcdf	0.3219976
17	0x3ebef6da	0.37297708
18	0x3f015f0b	0.5053565
19	0xbda8be20	-0.082393885
20	0xbebd9efb	-0.37035355
21	0x3f476c0d	0.7789925
22	0xbfb5f3f0	-1.4215069
23	0xbfaec6ab	-1.3654379
24	0x3f281af2	0.65666115
25	0xbf1408db	-0.5782601
26	0xbf89ab1a	-1.0755341
27	0x3f80e130	1.0068722
28	0x3f08a4a2	0.5337621
29	0xbeaaec1b	-0.3338326
30	0x3e070d6c	0.13188714
31	0xbd8dc11d	-0.06921599
32	0xbf14e505	-0.58161956
33	0x3df82321	0.12116075
34	0xbf767b08	-0.9628148
35	0x3ea290ae	0.31751007
36	0x3ee8bdcb	0.454573
37	0xbf2811e3	-0.6565229
38	0x3e83d89f	0.25751206
39	0x3f7bf42e	0.98419464
40	0xbfb10898	-1.3830748
41	0xbe6c009b	-0.23047106
42	0x3eb6ddca	0.35716087
43	0xc02f3396	-2.7375236
44	0xbf291e60	-0.66061974
45	0xbe3d1e8d	-0.18468685
46	0xbe960e61	-0.29307845
47	0x3f0396da	0.51402056
48	0xbf0dd2b8	-0.55399656
49	0x3e3d9a4c	0.18515891
50	0x3dcf6c52	0.10128082
51	0xbedec17c	-0.43506992
52	0x3ed56f2c	0.4168638
53	0xbf033de0	-0.5126629
54	0xbdb34163	-0.08752706
55	0xbe9fcbf8	-0.31210303
56	0x3e822533	0.25419006
57	0x3df3fa04	0.11912921
58	0x3f0a6047	0.5405316
59	0xc007dc62	-2.122826
60	0xbe89b749	-0.26897648
61	0xbd541ef7	-0.051787343
62	0x3e44c077	0.19214045
63	0xbe1af3c2	-0.15132049

arith.constant1 f4 [4, 16]
0	0xbe169722	-0.1470609
1	0x3b28ae9e	0.0025738846
2	0x3eac23f1	0.3362117
3	0x3d93b7a8	0.07212764
4	0x3eb1d96f	0.347362
5	0xbde8bdde	-0.11364339
6	0x3e3ed581	0.18636133
7	0xbc806aaf	-0.01567587
8	0x3e17a0ca	0.1480743
9	0xbe5520db	-0.20813315
10	0xbeac018a	-0.33594924
11	0x3e6e4210	0.23267388
12	0x3dd223d8	0.10260743
13	0xbe1e2fe5	-0.15447958
14	0x3f01f37b	0.50762147
15	0xbeccab36	-0.39974374
16	0xbff33f56	-1.9003704
17	0xbc39b2f9	-0.011334174
18	0xbf41b264	-0.7566283
19	0x3e99fafa	0.30074292
20	0x3e3f1193	0.18659048
21	0xbef2eea9	-0.47447708
22	0x3eb13280	0.3460884
23	0x3ea40a1c	0.32038963
24	0x3f3b7605	0.7322696
25	0x3e50315c	0.20331329
26	0xbf8a9e49	-1.0829555
27	0xbe24c8ce	-0.16092226
28	0x3f212289	0.6294332
29	0xbe83e080	-0.25757217
30	0xc017b099	-2.3701537
31	0xbde2eb30	-0.11080015
32	0xbf1f3a3b	-0.6219823
33	0x3ed8f5f5	0.4237515
34	0xbed8672b	-0.4226621
35	0x3ecc2c88	0.39877725
36	0x3f059562	0.52181065
37	0xbf340ce7	-0.7033219
38	0x3e662939	0.22476663
39	0xbde4d0f2	-0.11172666
40	0x3f07ee1b	0.53097695
41	0x3ee03b39	0.43795183
42	0xbf043bd6	-0.516538
43	0x3e655865	0.22397001
44	0x3ec2594b	0.3795875
45	0x3eb6b039	0.35681322
46	0xbe2f9a0b	-0.17148606
47	0x3f060cc9	0.5236326
48	0x3edb64ab	0.4285024
49	0x3e855195	0.26038805
50	0x3e290e80	0.16509438
51	0x3d6d1e10	0.057889998
52	0x3e84a9fb	0.25910935
53	0x3e2296ea	0.15877882
54	0xbea457e2	-0.320983
55	0xbf157d28	-0.583941
56	0xbe908fab	-0.2823461
57	0xbff7a7b4	-1.9348054
58	0x3be48f5f	0.006975099
59	0x3ee147f6	0.44000214
60	0xbf57bfae	-0.84276855
61	0xbdddc7f4	-0.10829154
62	0x3f23f020	0.64038277
63	0x3eddacf2	0.4329601

arith.constant2 f4 [16, 32]
0	0xbe1c5970	-0.15268493
1	0xbdc9dfdf	-0.09857153
2	0xbf398925	-0.7247489
3	0x3f06406c	0.5244205
4	0xbebbc5a2	-0.3667422
5	0xbe75734a	-0.2396976
6	0x3f1e8872	0.6192695
7	0x3f19cfa1	0.6008244
8	0xbed5b9d3	-0.41743335
9	0x3eeb1d6b	0.45920882
10	0x3f0713a9	0.52764374
11	0xbe6b8adc	-0.2300219
12	0xbd0f6365	-0.0350069
13	0xbe393131	-0.18085171
14	0x3f384449	0.71979195
15	0x3d557e96	0.052122675
16	0x3f283cb8	0.6571765
17	0x3ecbc92e	0.39801925
18	0x3f488a02	0.78335583
19	0x3f376795	0.7164243
20	0x3ed2339a	0.41054994
21	0xbf075287	-0.528603
22	0x3f1676ae	0.5877484
23	0x3a1f7ee0	0.00060842745
24	0x3e885f9e	0.2663545
25	0xbe3fd95e	-0.18735263
26	0x3e66c3d6	0.22535643
27	0x3ee058b4	0.43817675
28	0xbf11c91a	-0.5694748
29	0x3e981410	0.29702806
30	0x3d7f382d	0.062309433
31	0x3eba00e7	0.36328813
32	0xbe9cdcc6	-0.30637187
33	0xbc015079	-0.007892721
34	0xbeb7358b	-0.35783038
35	0xbea2e423	-0.3181468
36	0x3e3f04e8	0.18654215
37	0xbec7ce42	-0.3902455
38	0xbe61e6e8	-0.2206074
39	0x3e5768f6	0.21036133
40	0xbe17d4d7	-0.14827286
41	0xbecc31bb	-0.3988169
42	0xbd49b44f	-0.04924422
43	0x3e8b04d4	0.2715212
44	0xbed384d9	-0.41312292
45	0xbd852996	-0.065020725
46	0xbcef9f92	-0.029250894
47	0xbd977c27	-0.07396727
48	0x3d9941c7	0.07483249
49	0xbe619655	-0.22030003
50	0xbd404abd	-0.046946276
51	0xbe710809	-0.23538221
52	0x3e9219bd	0.28535262
53	0xbd3670c7	-0.044541147
54	0x3e468bc7	0.19389258
55	0x3dd605e5	0.10450343
56	0x3e18d3ab	0.14924495
57	0x3dbdb96c	0.09263882
58	0xbc1c5740	-0.009542286
59	0xbbf42f7b	-0.007451949
60	0xbd01bcaa	-0.031674065
61	0x3e695d04	0.22789389
62	0x3e0f67e6	0.14004478
63	0xbd7cdd50	-0.061734498
64	0x3e60a1b1	0.2193668
65	0x3ef27335	0.4735352
66	0xbce52a8f	-0.027974395
67	0xbf6a0dab	-0.91427106
68	0x3e080fc2	0.13287261
69	0x3ea702a9	0.32619217
70	0x3f1f26a0	0.6216831
71	0x3eee41f3	0.4653469
72	0xbd92963f	-0.071575634
73	0x3e4f2a1d	0.20230909
74	0x3dfdc90b	0.123918615
75	0xbf954e62	-1.1664546
76	0x3ed6de9b	0.4196671
77	0xbebb8709	-0.3662646
78	0xbe830644	-0.25590718
79	0xbd4b2504	-0.049595848
80	0x3f45caff	0.7726287
81	0x3d6ed2f4	0.05830665
82	0x3f36b37a	0.7136761
83	0x3f108fc3	0.5646936
84	0xbf5808b9	-0.8438831
85	0x3db731ad	0.08945022
86	0x3ea786c0	0.32719994
87	0xbe962ac1	-0.29329494
88	0x3e8be52c	0.27323282
89	0x3e12c281	0.1433201
90	0xbef0298d	-0.469067
91	0x3f136800	0.57580566
92	0xbf8e8151	-1.1133214
93	0x3f39420a	0.7236639
94	0x3ec13b26	0.3774044
95	0xbe838e74	-0.2569462
96	0x3ade0e00	0.0016941428
97	0xbe5956ad	-0.2122447
98	0xbe02cbb7	-0.12773024
99	0x3e835d17	0.2565696
100	0xbddd12ca	-0.10794599
101	0xbe9a405b	-0.30127224
102	0xbe22d0ce	-0.15899965
103	0xbe7e08b2	-0.24808004
104	0x3e3eee2e	0.18645546
105	0xbcd690c0	-0.026192069
106	0xbe31ee2f	-0.17376016
107	0xbe93843b	-0.2881182
108	0xbe92bd9a	-0.2866028
109	0x3e893cb9	0.2680414
110	0xbe050cfb	-0.12993233
111	0xbe9ca8e8	-0.30597615
112	0xbe24336c	-0.16035241
113	0x3cee05e0	0.029055536
114	0xbe710037	-0.23535238
115	0xbe9dca5e	-0.30818456
116	0x3e6b07ea	0.22952238
117	0xbda40ddc	-0.08010456
118	0x3eb169bb	0.34650978
119	0xbe24db56	-0.16099295
120	0xbe1909b1	-0.14945103
121	0xbe5ca8f8	-0.21548831
122	0x3e6ffdea	0.23436704
123	0x3e98ca41	0.29841807
124	0xbe6fbeca	-0.23412624
125	0x3dc9799c	0.09837648
126	0x3eaa621d	0.3327798
127	0x3cb76070	0.022384852
128	0xbe1d6987	-0.15372287
129	0x3e57633e	0.21033952
130	0xbeae5f4c	-0.3405708
131	0xbd3a2760	-0.045447707
132	0xbe86e952	-0.26349884
133	0xbe842340	-0.25808144
134	0xbeb27645	-0.34855857
135	0x3e67647a	0.22596923
136	0xbe15a94c	-0.14615363
137	0x3d85182f	0.06498753
138	0xbdf7039f	-0.120612375
139	0xbe0a7b43	-0.13523583
140	0xbe8c01d3	-0.27345142
141	0x3e61e2b5	0.22059138
142	0x3e0664bf	0.13124369
143	0x3c898eeb	0.016791781
144	0x3d4c8cd9	0.04993901
145	0xbe34ca4e	-0.17655298
146	0xbe25aa94	-0.16178352
147	0xbe14a02e	-0.14514229
148	0xbe5583c6	-0.20851049
149	0xbe2552ab	-0.16144817
150	0xbda93edb	-0.08263942
151	0x3d39d5e0	0.045369983
152	0xbe636908	-0.22208035
153	0x3e7c3f6d	0.2463357
154	0x3e3ea66e	0.18618175
155	0xbeb3b738	-0.35100722
156	0x3e6859ac	0.22690457
157	0x3ea1d9a8	0.3161137
158	0x3e65749d	0.22407766
159	0x3e5f3281	0.2179661
160	0xbed9506a	-0.42444164
161	0x3e9916aa	0.29900104
162	0xbde683b1	-0.11255587
163	0xbe1ad714	-0.15121108
164	0xbe6c5908	-0.23080838
165	0xbe7d03ee	-0.2470853
166	0x3f341d28	0.7035699
167	0x3e838581	0.25687793
168	0xbe102c10	-0.14079309
169	0x3e487a75	0.19577964
170	0x3c78c754	0.015184242
171	0xbdb26342	-0.08710338
172	0x3e7cf6ac	0.24703473
173	0xbf1b64a4	-0.6070044
174	0x3ea757d9	0.3268421
175	0x3efac1da	0.48976022
176	0x3f32bea6	0.69822156
177	0x3ea8be85	0.32957855
178	0x3ea8e574	0.3298756
179	0x3efcac1d	0.49350062
180	0xbe67ba66	-0.22629699
181	0xbf16e796	-0.5894712
182	0x3ead8347	0.3388922
183	0xbebb4567	-0.36576387
184	0x3f2e032a	0.6797358
185	0x3e64da15	0.22348817
186	0x3e95d2fd	0.29262534
187	0x3f07cad6	0.5304388
188	0xbf2c659f	-0.6734256
189	0x3ed3acb3	0.41342697
190	0xbe799cfe	-0.24376294
191	0xbe61a4d5	-0.22035535
192	0x3f370f92	0.71508133
193	0x3e9646bc	0.2935084
194	0x3f207f3f	0.6269416
195	0xbebf4ffa	-0.37365705
196	0x3e986d47	0.29770872
197	0x3f6fce28	0.93673944
198	0xbebe9794	-0.3722502
199	0xbeb0e7e2	-0.34551913
200	0xbc3066c7	-0.0107666915
201	0x3eade14c	0.3396095
202	0x3f1bae58	0.608129
203	0x3ec77ab0	0.3896079
204	0xbd9fd15d	-0.07803605
205	0x3f84241f	1.0323523
206	0x3eb3b552	0.35099274
207	0xbedb6616	-0.42851323
208	0xbe097427	-0.13423215
209	0x3db39ba4	0.087699205
210	0xbec262f2	-0.37966114
211	0x3e2d7716	0.16939959
212	0x3eab4bd2	0.33456284
213	0x3f487d95	0.7831662
214	0xbe03e564	-0.12880474
215	0x3f34aeec	0.7057941
216	0xbea90848	-0.3301413
217	0x3f4286fa	0.7598721
218	0xbf46d271	-0.7766486
219	0xbe0c96e9	-0.13729443
220	0xbe550b1d	-0.2080502
221	0xbcc2b3aa	-0.023767311
222	0x3e8460c5	0.2585508
223	0x3ea38728	0.31939054
224	0x3f3e9a51	0.7445422
225	0x3e602b35	0.21891482
226	0x3e9f34b3	0.31094894
227	0x3c54cb56	0.012987932
228	0x3ee09bea	0.43868953
229	0x3f4d4b8d	0.80193406
230	0xbe53fdbb	-0.20702259
231	0xbf27f2e4	-0.65604997
232	0x3eb2f11b	0.34949574
233	0x3ed5c1f0	0.41749525
234	0x3e790a1b	0.24320261
235	0x3f44765c	0.767431
236	0x3ea28040	0.31738472
237	0x3ea819ac	0.32832086
238	0x3f0e3830	0.55554485
239	0x3de51db7	0.11187308
240	0xbe1f4fa3	-0.15557723
241	0x3eb85378	0.36001182
242	0xbef222d6	-0.47292203
243	0x3dde8f26	0.10867147
244	0x3f6fd90a	0.9369055
245	0x3f230d56	0.63692224
246	0xbd0179be	-0.031610243
247	0x3ee4406f	0.4458041
248	0xbeea42ec	-0.45754182
249	0x3f2ebf12	0.682603
250	0xbf114648	-0.56747866
251	0xbf34970a	-0.7054297
252	0xbe046883	-0.12930493
253	0x3d4faaf2	0.050700136
254	0x3d73a64e	0.059484772
255	0x3ddf5baf	0.10906159

arith.constant3 f4 [32, 64]
0	0xbdc65032	-0.09683265
1	0xbcdaed28	-0.026724413
2	0x3ebbca63	0.36677846
3	0x3f0a46da	0.5401436
4	0x3efa4657	0.4888179
5	0x3eb0d54a	0.34537727
6	0xbea12d26	-0.31479758
7	0xbdc5dc54	-0.09661165
8	0xbedca21f	-0.4309244
9	0xbea08a61	-0.31355575
10	0xbd576635	-0.052587707
11	0xbf8f881f	-1.1213416
12	0xbe29f740	-0.16598225
13	0xbe0b6b0b	-0.13615052
14	0x3ebc6de8	0.36802602
15	0xbe16cfaa	-0.14727655
16	0x3e8354a6	0.2565052
17	0xbfa790c0	-1.3091049
18	0x3ea01a31	0.31269982
19	0xbe903b83	-0.28170404
20	0xbdf298a2	-0.11845519
21	0x3ec60dbe	0.3868236
22	0xbe960ed6	-0.29308194
23	0x3e0609cf	0.13089679
24	0x3e5866b6	0.21132931
25	0xbb3afe8c	-0.002853307
26	0x3df53489	0.11972911
27	0x3e298ae4	0.16556889
28	0xbdcc894f	-0.09987127
29	0xbcfe1796	-0.031017106
30	0xbf39ea2d	-0.7262295
31	0x3f257bda	0.6464211
32	0xbe6646a1	-0.2248788
33	0xbdb7c208	-0.089725554
34	0x3e602dcd	0.21892472
35	0xbdbabd00	-0.0911808
36	0x3ede5014	0.4342047
37	0xbe97e2cc	-0.2966522
38	0x3e14aa83	0.1451817
39	0x3ef22b14	0.4729849
40	0x3e4080b2	0.18799093
41	0x3e99e49e	0.30057234
42	0xbe22a093	-0.15881567
43	0x3f097cb1	0.5370589
44	0x3cbeafea	0.023277242
45	0x3f3e5a19	0.7435623
46	0x3ecfb811	0.4057012
47	0xbd0a86b7	-0.03381988
48	0xbf100bdc	-0.56268096
49	0xbeee904c	-0.46594465
50	0x3e6b7e96	0.22997507
51	0x3ba749ca	0.005105232
52	0x3d7d18d6	0.061791264
53	0x3dfba562	0.12287404
54	0x3e967380	0.29384995
55	0x3e27ebdd	0.16398568
56	0xbe1d4871	-0.15359665
57	0xbf542e81	-0.8288346
58	0x3f1ee2bb	0.62064713
59	0xbce305d7	-0.027712746
60	0x3ed3fccb	0.41403803
61	0x3d206d6e	0.03916686
62	0x3eb3a36d	0.3508562
63	0xbe7f66b5	-0.24941523
64	0x3dc9027e	0.098149285
65	0x3e0c7044	0.13714701
66	0xbe1802d5	-0.1484483
67	0xbde752fb	-0.11295124
68	0xbd06f57b	-0.032948952
69	0xbe1592a7	-0.14606725
70	0x3f076af0	0.5289755
71	0x3d08d032	0.033401676
72	0xbf0ca3bf	-0.54937357
73	0xbd54714b	-0.051865857
74	0xbe3c5ca6	-0.18394718
75	0xbddad85e	-0.106858
76	0x3f087ae3	0.5331251
77	0xbdb09575	-0.08622257
78	0xbe91e3ce	-0.28494114
79	0x3f1aac8d	0.6041954
80	0xbe323cab	-0.17405955
81	0xbe54f2a7	-0.2079569
82	0x3e01a667	0.12661134
83	0xbe6a9456	-0.22908148
84	0x3b6e8796	0.0036396733
85	0xbe50fe40	-0.20409489
86	0xbe15b81d	-0.14621015
87	0x3f16752b	0.58772534
88	0x3c35302b	0.011058847
89	0x3c10e2ec	0.008843165
90	0x3f158f89	0.5842214
91	0x3d908814	0.07057205
92	0x3f1152f4	0.567672
93	0x3efe4650	0.4966302
94	0xbe1217df	-0.14266919
95	0xbe1bbf57	-0.15209709
96	0x3f310aac	0.6915691
97	0x3ed3a453	0.41336307
98	0xbe86a3c6	-0.26296824
99	0x3ec42975	0.3831288
100	0x3c9596d0	0.01826039
101	0x3e185890	0.14877534
102	0xbe0b749c	-0.13618702
103	0x3eaa3e42	0.33250624
104	0xbe1e320a	-0.15448776
105	0x3da1725d	0.07883141
106	0x3f04b114	0.518327
107	0xbe77ff57	-0.24218498
108	0xbde8ebdd	-0.11373112
109	0xbe3713d8	-0.17878664
110	0xbec95bfa	-0.39327985
111	0x3d886ff8	0.06661981
112	0x3e8f2aee	0.2796244
113	0x3f079fdd	0.52978307
114	0x3cd1e785	0.025623092
115	0x3f456a87	0.7711567
116	0xbe47dc76	-0.19517693
117	0x3eec5ab7	0.4616296
118	0x3daa63ed	0.083198406
119	0x3e79db30	0.2440002
120	0x3e8ff2f0	0.28115034
121	0x3d03d26d	0.0321831
122	0xbd54fe49	-0.052000318
123	0xbe7d5290	-0.24738526
124	0x3ec97c02	0.39352423
125	0x3ea3625a	0.31910974
126	0x3dedf185	0.11618332
127	0x3e54c1a7	0.20776998
128	0xbd4a7064	-0.04942359
129	0xbe20b469	-0.15693821
130	0xbdcf400d	-0.101196386
131	0x3ee7e305	0.4529039
132	0x3e63991a	0.22226372
133	0x3ebceff7	0.3690183
134	0x3c3a3d62	0.011367174
135	0x3cebe082	0.028793577
136	0xbeecb1c4	-0.46229374
137	0xbed59b7e	-0.41720194
138	0xbe8d63ca	-0.27615196
139	0xbedf9e4f	-0.43675467
140	0x3f2c256c	0.672446
141	0x3ecf8d76	0.40537614
142	0x3da8d61f	0.08243965
143	0x3ea8c8a9	0.32965592
144	0xbe3adba4	-0.18247849
145	0xbfbd8a50	-1.4807835
146	0x3ea7c18c	0.32764852
147	0xbf08925a	-0.53348315
148	0xbcf2c4f8	-0.029634938
149	0xbe45fc29	-0.19334473
150	0xbef1396d	-0.47114125
151	0x3efa35cf	0.48869178
152	0x3caef370	0.021356314
153	0xbd0cd25d	-0.034380306
154	0xbd27083d	-0.04077934
155	0xbe86b92a	-0.26313144
156	0x3eeaf74a	0.45891792
157	0x3ee37f91	0.44433263
158	0xbece0882	-0.40240866
159	0x3e653a2b	0.2238547
160	0x3f2098c8	0.62733126
161	0x3efaa7b1	0.48956063
162	0xbd35c469	-0.044376764
163	0x3e75f9a3	0.2402101
164	0xbe28da8c	-0.16489619
165	0xbe75fe45	-0.24022777
166	0x3cbf01bc	0.023316257
167	0xbdccae2d	-0.09994159
168	0xbec3350d	-0.38126412
169	0x3ed83d56	0.42234296
170	0x3ed7d1a4	0.4215213
171	0xbe123aa3	-0.1428018
172	0xbef1c52c	-0.47220743
173	0x3e54bf7e	0.20776173
174	0xbe416d2f	-0.18889306
175	0xbe04ab6c	-0.12956017
176	0x3d0a263c	0.03372787
177	0x3ea96aa0	0.3308916
178	0xbd1c23fa	-0.038120247
179	0x3f7786e0	0.9669018
180	0xbe31562d	-0.1731803
181	0x3e95ca31	0.29255822
182	0x3ea78cb5	0.32724538
183	0x3e4e7fd4	0.2016595
184	0xbe09762e	-0.13423988
185	0xbed4f5c7	-0.41593763
186	0xbe2500db	-0.16113608
187	0xbee15719	-0.44011763
188	0x3ea7a47b	0.32742676
189	0x3e536c8c	0.20646876
190	0x3d9f65d4	0.07783094
191	0x3ee69a28	0.45039487
192	0xbd8eebb1	-0.06978548
193	0xbc8482a8	-0.016175583
194	0x3f040f9a	0.51586306
195	0x3e2641f5	0.16236098
196	0x3f216fa5	0.6306098
197	0xbd113a87	-0.035456207
198	0x3e24038e	0.16016981
199	0x3d3c1939	0.04592249
200	0x3e8a494c	0.27009046
201	0x3e20ecda	0.15715352
202	0xbd1ef7e6	-0.038810633
203	0xbe8bc8c2	-0.27301604
204	0xbe069925	-0.13144358
205	0x3ebef576	0.37296647
206	0x3ec96339	0.39333513
207	0xbe2bb1eb	-0.16767089
208	0x3e548853	0.20755129
209	0xbf67d7d1	-0.90563685
210	0x3e050124	0.12988716
211	0xbd2b2d42	-0.041791208
212	0xbe32ced8	-0.17461717
213	0x3f4db033	0.80346984
214	0xbf16dfc9	-0.5893522
215	0xbe8f1aa4	-0.27950013
216	0x3d6c87a8	0.05774656
217	0x3c16a0b9	0.009193593
218	0xbf2941e0	-0.6611614
219	0x3dafef9e	0.08590625
220	0xbe9233d5	-0.2855517
221	0xbf07cbdb	-0.53045434
222	0xbee63012	-0.4495855
223	0x3dfff46a	0.1249779
224	0xbee908cd	-0.45514527
225	0xbef354da	-0.47525674
226	0x3d935d82	0.071955696
227	0xbde59988	-0.112109244
228	0x3e949823	0.2902232
229	0xbe0a5422	-0.13508657
230	0x3ef7073e	0.48247713
231	0x3e0e029f	0.13868187
232	0x3cc9fc6e	0.0246565
233	0x3e7a7566	0.24458846
234	0xbeed9234	-0.46400607
235	0x3e877ddb	0.26463208
236	0x3e6e0286	0.2324315
237	0x3f1a6d5c	0.6032312
238	0x3f13db11	0.57756144
239	0x3e30e0d3	0.17273264
240	0x3f2b87f7	0.6700434
241	0xbec570fc	-0.38562763
242	0x3dcfcb4c	0.10146198
243	0xbf12e7e7	-0.57385105
244	0x3ecfc254	0.40577948
245	0x3d6dbbf4	0.058040574
246	0xbe47f577	-0.19527231
247	0xbf13b711	-0.5770121
248	0x3e06a3fa	0.1314849
249	0xbf2dfadd	-0.6796091
250	0x3f01cdfe	0.50704944
251	0x3dbe8b4b	0.09303912
252	0xbe086014	-0.13317901
253	0xbeaffd7c	-0.3437308
254	0xbe2707c0	-0.1631155
255	0xbe5a1148	-0.21295655

functional_1_1/dense_1_2/Add/ReadVariableOp f4 [32]
0	0x3e92af63	0.28649434
1	0x3ed1be05	0.40965286
2	0x3ebb4c64	0.3658172
3	0xbe04220a	-0.1290361
4	0x3e190afa	0.14945593
5	0x3f03f2fd	0.51542646
6	0x3dfc5c41	0.123222835
7	0x3dceeb7e	0.1010351
8	0x3ee1110b	0.43958315
9	0x3e515c67	0.20445405
10	0x3e81bb6d	0.25338307
11	0x3ddc0cfb	0.10744663
12	0x3e841225	0.25795093
13	0x3ee11d5d	0.43967715
14	0x3d27798d	0.040887404
15	0x3dfbf8ee	0.12303339
16	0x3e32b663	0.17452388
17	0x3ee0ffa8	0.4394505
18	0xbced5ad5	-0.028973976
19	0x3e926bf2	0.2859798
20	0xbd5f6597	-0.054540243
21	0x3ed750ca	0.42053825
22	0x3cd820b5	0.026382783
23	0x3edf373e	0.43596834
24	0x3d5a8aee	0.05335515
25	0x3f023f15	0.50877506
26	0xbe2fcc3a	-0.1716775
27	0x3d60a639	0.054846022
28	0xbda17677	-0.078839235
29	0x3e00e61d	0.12587781
30	0xbd5a1585	-0.05324318
31	0xbd510006	-0.051025413

functional_1_1/dense_1/Add/ReadVariableOp f4 [64]
0	0x3e3c35e6	0.18379936
1	0x3f2a94b8	0.66633177
2	0x3ec74538	0.38919997
3	0x3e83a184	0.25709164
4	0x3e1c2ffc	0.1525268
5	0x3ebccece	0.3687653
6	0x3f3a18ab	0.7269389
7	0x3e8a4960	0.27009106
8	0xbeafa255	-0.34303537
9	0xbdc8d81d	-0.09806845
10	0xbcf0617c	-0.02934336
11	0xbeac9327	-0.33706018
12	0x3eabfe3e	0.3359241
13	0x3d76d954	0.060265854
14	0x3d42d238	0.04756376
15	0x3e8db90c	0.27680242
16	0xbd0735e3	-0.033010375
17	0xbf28d18a	-0.6594473
18	0x3ebb3bc4	0.36569035
19	0xbebdca36	-0.37068337
20	0x3d77ffeb	0.060546797
21	0x3e8507f9	0.25982645
22	0xbed729b2	-0.42023998
23	0x3eb52b56	0.35384625
24	0x3eb239f8	0.34809852
25	0xbea78b39	-0.32723406
26	0x3e51ef47	0.20501433
27	0xba4d0224	-0.00078204484
28	0x3ebef9c7	0.3729994
29	0x3ea88692	0.3291517
30	0xbf3b7110	-0.73219395
31	0x3e1dde44	0.15416819
32	0x3f3eb71b	0.74498147
33	0x3ed1d796	0.40984792
34	0x3e5522ec	0.20814103
35	0x3f455c25	0.77093726
36	0xba084731	-0.00051985966
37	0x3e61cdae	0.22051117
38	0x3ee2d229	0.44300964
39	0x3f2451b7	0.64187187
40	0x3f1323b2	0.5747634
41	0x3eef8be9	0.4678643
42	0x3eae2f24	0.3402034
43	0xba3568e3	-0.00069202314
44	0x3f0c3a71	0.54776675
45	0x3cb17874	0.021663882
46	0x3ca0fbb8	0.019651279
47	0x3e986ea7	0.2977192
48	0xbc800546	-0.015627515
49	0x3f201359	0.6252952
50	0x3de5fd83	0.11229994
51	0x3f133b15	0.5751203
52	0x3ede0e28	0.43370175
53	0x3ec67230	0.38758993
54	0x3e52a1a8	0.2056948
55	0x3e42428d	0.189707
56	0x3f06a12c	0.5258968
57	0xbe94369c	-0.28947914
58	0x3edf3196	0.4359252
59	0x3ee289f2	0.4424587
60	0x3ec7c1fe	0.39015192
61	0x3ccbfc8b	0.024900695
62	0x3e860b89	0.26180676
63	0x3d909164	0.07058981

functional_1_1/dense_2_1/Add/ReadVariableOp f4 [16]
0	0xbda91de8	-0.08257657
1	0xbcc190c0	-0.023628592
2	0x3e7e0926	0.24808177
3	0x00000000	0.0
4	0xbc0b6ea8	-0.008510269
5	0x3b5d0c28	0.003372917
6	0x3ef2dad9	0.47432593
7	0x3ecad88f	0.39618346
8	0x3e85581f	0.26043794
9	0x3eb04969	0.34431008
10	0x3e355545	0.17708309
11	0xbd4ce9ce	-0.05002766
12	0x3ec35d36	0.38157052
13	0xbc19d92f	-0.0093901595
14	0x3e125208	0.14289105
15	0xbcd7be86	-0.026335966

functional_1_1/stunting_output_1/Add/ReadVariableOp f4 [4]
0	0x3e51adea	0.20476499
1	0x3df97ffe	0.12182616
2	0xbdc65457	-0.09684055
3	0xbe98b05c	-0.29822052

functional_1_1/wasting_output_1/Add/ReadVariableOp f4 [4]
0	0x3e12c0f5	0.1433142
1	0xbe54f393	-0.20796041
2	0xbcbf2c96	-0.02333669
3	0x3d855951	0.065111764

functional_1_1/dense_1/MatMul f4 [64, 4]
0	0xbe54e61b	-0.20790903
1	0x3df1b5d5	0.1180226
2	0xbdb4a99c	-0.08821413
3	0xbe33076b	-0.17483298
4	0x3d346936	0.04404565
5	0x3ea38951	0.31940702
6	0x3dd6ef1e	0.10494827
7	0x3df7f5c8	0.12107426
8	0xbe7cc1e0	-0.24683332
9	0xbd23cd1e	-0.039990537
10	0x3f091c3a	0.53558695
11	0xbeb9d5d0	-0.36295938
12	0x3edf011c	0.43555534
13	0x3f01860a	0.5059515
14	0xbe9d5814	-0.3073126
15	0xbe15a613	-0.14614134
16	0xbf002080	-0.5004959
17	0x3ef3b645	0.47599998
18	0xbd040ef7	-0.032240834
19	0xbea975ed	-0.33097783
20	0x3e87a98f	0.2649655
21	0x3e732282	0.23743632
22	0xbe318891	-0.17337252
23	0xbe432cbd	-0.19060035
24	0xbd874aba	-0.0660605
25	0x3ef4862c	0.47758615
26	0xbdf1b23c	-0.11801574
27	0x3ec3684e	0.38165516
28	0x3f0989aa	0.53725684
29	0x3e256f3e	0.16155717
30	0x3dacf1f5	0.08444587
31	0x3ec43b0c	0.383263
32	0x3eea20d4	0.4572817
33	0xbf0db74b	-0.5535781
34	0xbded0493	-0.11573138
35	0xbd609b35	-0.054835517
36	0xbf08c757	-0.5342917
37	0xbef949a6	-0.48689002
38	0xbd043e9a	-0.032286264
39	0x3da9818f	0.082766645
40	0xbeff6b5e	-0.49886602
41	0xbf0a523f	-0.5403175
42	0x3dfe0cb7	0.12404769
43	0xbbc27a7c	-0.0059350114
44	0xbe65eac0	-0.22452831
45	0xbf342d5f	-0.7038173
46	0x3d3d2479	0.04617736
47	0x3dd0f94b	0.10203799
48	0x3ce7614b	0.028244635
49	0x3e91a522	0.284463
50	0xbef5eaf6	-0.48030823
51	0x3eddd3d4	0.43325675
52	0x3c943800	0.01809311
53	0x3ea69c3f	0.3254108
54	0xbf0d9c9f	-0.5531711
55	0x3e4f4c06	0.20243844
56	0xbe98c362	-0.29836565
57	0x3e9bf392	0.30459267
58	0x3df3577f	0.11881923
59	0xbf229880	-0.63513947
60	0x3f2bc79f	0.6710147
61	0x3e04b878	0.12960994
62	0xbec325ae	-0.38114685
63	0x3e9f3ac3	0.3109952
64	0xbcb88840	-0.022525907
65	0xbeb7d96f	-0.35908076
66	0x3e07142a	0.13191286
67	0xbefbb3e4	-0.49160683
68	0x3bc6f69c	0.0060718786
69	0xbf1a619b	-0.60305184
70	0x3d0edccd	0.03487854
71	0x3d1b5a7b	0.037928086
72	0xbd0625f1	-0.032751027
73	0x3ed73206	0.42030352
74	0x3dbf10ef	0.09329402
75	0xbf06a85a	-0.52600634
76	0xbe41ca25	-0.18924768
77	0xbebe8367	-0.37209627
78	0xbdebe2a8	-0.115178406
79	0xbebad5ab	-0.3649114
80	0xbec6e1b9	-0.38844088
81	0xbf015117	-0.5051436
82	0x3db8ebb4	0.09029332
83	0x3ddb0625	0.10694531
84	0x3cb610ca	0.022224803
85	0x3d6e9a65	0.05825271
86	0x3f19951b	0.5999314
87	0xbeeac69c	-0.45854652
88	0xbcff4055	-0.031158606
89	0x3e0c1085	0.13678177
90	0xbec14a56	-0.37752026
91	0xbe84c231	-0.25929406
92	0xbecbe3d6	-0.39822263
93	0x3eeee78f	0.4666104
94	0xbeeabee5	-0.45848766
95	0x3dafb510	0.08579457
96	0x3d9fa81b	0.077957354
97	0xbee4bcd7	-0.44675323
98	0x3ec2cf2d	0.38048688
99	0xbbf50146	-0.0074769584
100	0x3e5a75ad	0.21333952
101	0xbe17d49b	-0.14827196
102	0xbe87212e	-0.26392502
103	0xbedf0448	-0.43557954
104	0x3f14caf2	0.5812217
105	0xbefc8a82	-0.49324423
106	0x3ca6cce6	0.020361375
107	0x3c3da1a5	0.011574184
108	0x3f19d8d9	0.6009651
109	0xbef39aba	-0.47578984
110	0x3b9f8d4b	0.0048691384
111	0x3cd91255	0.026498
112	0xbebfb2df	-0.37441155
113	0xbe32e1ae	-0.17468902
114	0xbe33e25b	-0.17566817
115	0x3e8366a2	0.2566424
116	0xbea4500e	-0.32092327
117	0x3eee6a1e	0.46565336
118	0xbf0818bb	-0.53162736
119	0x3de0469a	0.10950966
120	0xbdfdb835	-0.1238865
121	0xbf0fb8ac	-0.5614116
122	0xbde317b6	-0.11088507
123	0xbe227e69	-0.15868534
124	0xbef4e47b	-0.47830567
125	0x3ec0a9c4	0.3762952
126	0x3d5f33a4	0.054492608
127	0xbf27be5a	-0.6552483
128	0x3e1af679	0.15133084
129	0x3e8713ab	0.26382193
130	0xbea1e923	-0.31623182
131	0x3ef52146	0.47876948
132	0xbed63d30	-0.41843557
133	0x3db7b1d8	0.08969468
134	0xbef06c99	-0.46957853
135	0x3b63923b	0.0034724611
136	0x3e8daceb	0.27670988
137	0x3eccff88	0.40038705
138	0x3d84bf73	0.064818285
139	0xbecf091f	-0.40436646
140	0x3d098064	0.03356971
141	0x3e89ef8d	0.26940575
142	0x3da287b0	0.079360366
143	0x3e275cfb	0.16344063
144	0xbe857150	-0.26063013
145	0x3e58c649	0.2116939
146	0x3cd8fa65	0.026486585
147	0xbf005862	-0.5013486
148	0x3e9ceb1f	0.30648133
149	0xbeb78451	-0.35843137
150	0x3ebe8706	0.3721239
151	0x3e8b70e1	0.27234557
152	0x3db24352	0.087042466
153	0x3c2da983	0.010599497
154	0x3ebf59c5	0.37373176
155	0xbe6c2e2c	-0.23064488
156	0x3dbdc4ae	0.09266029
157	0xbec1866b	-0.37797865
158	0x3f1a8aa7	0.60367817
159	0x3cbd3b07	0.023099435
160	0xbe423920	-0.18967104
161	0x3eaa03a3	0.332059
162	0x3eddb7e0	0.43304348
163	0x3d015edf	0.031584617
164	0xbba110ec	-0.0049153473
165	0x3ea524d7	0.3225467
166	0x3cf5f01b	0.030021718
167	0xbeb6d0c5	-0.35706154
168	0x3ef6bae6	0.48189467
169	0x3ee682bc	0.45021617
170	0xbf0118c4	-0.50428414
171	0x3e62f29b	0.22162859
172	0x3e667c30	0.22508311
173	0x3ebaf414	0.36514342
174	0x3d6a0cbf	0.057141062
175	0xbf21c30c	-0.6318824
176	0x3cc48994	0.023991384
177	0xbe854a4b	-0.26033244
178	0x3f129671	0.57260805
179	0x3e583f82	0.21117976
180	0x3e8327f9	0.25616434
181	0x3eba7c91	0.36423162
182	0x3ddd4f7a	0.108061746
183	0xbf31e6b5	-0.69492656
184	0x3ea2a2c6	0.3176481
185	0x3e4dab53	0.20084886
186	0x3e7ee618	0.24892461
187	0xbf02beb1	-0.5107222
188	0xbe95d96f	-0.2926745
189	0xbea7f595	-0.32804552
190	0x3ec78b0a	0.38973266
191	0x3ed97bad	0.4247717
192	0x3dd7d030	0.105377555
193	0xbf22b19c	-0.6355226
194	0xbb0d3638	-0.002154721
195	0x3ec9c704	0.3940965
196	0xbdb72cd1	-0.08944095
197	0x3eb18150	0.3466897
198	0xbeb775e7	-0.3583214
199	0x3ed77327	0.42080042
200	0x3efa03a1	0.48830894
201	0xbed1b34d	-0.40957108
202	0x3e8c9443	0.27456865
203	0xbe1a6901	-0.15079118
204	0x3c723db1	0.014785216
205	0x3ea9afca	0.3314193
206	0xbee9691e	-0.4558801
207	0x3df92ecd	0.1216713
208	0x3e8acb62	0.27108294
209	0x3e61cb56	0.22050223
210	0x3f07dfea	0.5307604
211	0xbe0831f4	-0.13300306
212	0xbf3e28b9	-0.7428089
213	0xbdbf2365	-0.09332923
214	0x3e121b41	0.14268209
215	0x3d30faeb	0.043208044
216	0xbef29172	-0.4737659
217	0xbe2eb102	-0.1705971
218	0x3c01ee97	0.007930419
219	0x3dee997c	0.116503686
220	0x3f308f71	0.68968874
221	0xbf09dad9	-0.5384956
222	0x3c6c2ad0	0.014414504
223	0x3d626fee	0.055282526
224	0x3ebe0d60	0.3711958
225	0x3dcb36d2	0.099225655
226	0x3eae2481	0.34012225
227	0x3e08f8fa	0.13376227
228	0x3d9de013	0.077087544
229	0xbf1920ad	-0.59815484
230	0x3c3838af	0.011243983
231	0x3df5497c	0.11976907
232	0xbdb4332b	-0.08798822
233	0xbee6bdfb	-0.4506682
234	0x3f3273fe	0.6970824
235	0xbe289bd1	-0.16465689
236	0x3d034ae2	0.032053836
237	0xbe20abf2	-0.15690592
238	0x3f1c09f0	0.60952663
239	0x3e40992c	0.1880843
240	0x3f3c3d2c	0.7353084
241	0x3d9d83f3	0.07691183
242	0x3bca3831	0.0061712493
243	0xbdb4cbac	-0.0882791
244	0xbe917210	-0.28407335
245	0xbe0c8453	-0.13722353
246	0xbc41f2ef	-0.011837705
247	0x3e254e8d	0.16143246
248	0xbf21bf33	-0.6318237
249	0x3d9c9c9c	0.07647058
250	0x3ddd610e	0.10809527
251	0xbcfe5e14	-0.03105072
252	0xbe935208	-0.28773522
253	0x3e6061f9	0.21912374
254	0xbf02beee	-0.51072586
255	0x3ec22d65	0.37925258
